mlp_mixer_vegetables_56.pth (torch, 169884 bytes, 30 tensors)

1.weight f4 [4, 9408]
0.023217684 0.11274884 0.17245355 -0.0045987274 0.10381248 0.16675524 -0.02754198 0.080001906
0.124178566 -0.06746586 0.033655595 0.05773922 -0.07453608 0.035678748 0.047109295 -0.06793234
0.042425476 0.051346637 -0.03394874 0.079874754 0.085695244 -0.019736191 0.0868178 0.10342013
-0.06239514 0.02758828 0.056123033 -0.06159734 0.06621038 0.06738375 -0.09114913 0.020608544
0.01972787 -0.06127844 0.044375278 0.012625225 -0.04241938 0.045575436 0.032030392 -0.059484806
0.031313464 -0.0043349867 -0.10499198 -0.014701089 -0.07026176 -0.07246236 -0.013795901 -0.059001498
-0.062862284 0.006989725 -0.030961376 -0.05783015 0.018993257 -0.008718753 -0.023395864 0.033997487
0.021350482 -0.027012084 0.043398954 0.04245217 -0.10057342 -0.020456275 -0.021883737 -0.12248589
-0.030080177 -0.04729964 -0.10596879 0.003687655 -0.0012129091 -0.13364623 -0.019009994 -0.0095528625
-0.098332345 0.00974446 0.028891057 -0.055429786 0.018306756 0.034057263 -0.014894092 0.063929416
0.07650532 0.0036465582 0.090773076 0.09714256 -0.010823712 0.07117233 0.09993552 -0.040311437
0.0560368 0.059286065 -0.07992132 0.01923849 0.038161486 -0.12159693 -0.03173088 -0.031095287
-0.094393976 -0.0013042238 -0.01987212 -0.052769896 0.03547516 0.014066643 -0.030432647 0.0639799
0.05170198 -0.012525359 0.08597849 0.04306339 -0.046613794 0.051351395 0.012003661 -0.045566652
0.0590205 0.023745554 -0.0475603 0.049155034 0.016372496 -0.034327153 0.061506618 0.015353297
-0.031527523 0.05376271 0.024056194 -0.066655256 0.03754356 -0.039500687 -0.08597366 0.02771025
-0.0761073 -0.06854371 0.043030743 -0.05954267 -0.076008394 0.031884085 -0.07391216 -0.07764939
0.037433088 -0.064081214 -0.100471854 0.005968149 -0.072661385 -0.07709998 0.028532477 -0.036508147
-0.059647582 0.049891107 -0.0064986893 -0.042340618 0.06640757 0.015675472 -0.050534796 0.07726007
0.02501002 -0.083988726 0.06851994 0.012219526 -0.083720215 0.07471499 0.010412928 -0.058698323
0.09367584 0.010977883 -0.045229044 0.11230832 0.037175953 -0.07065194 0.08857717 -0.007055891
-0.026746558 0.047524687 0.08108548 -0.04431229 0.05040626 0.1077275 -0.041554715 0.04533419
0.0944689 -0.12744178 -0.03152852 -0.00926861 -0.08904237 0.017171007 0.026215719 -0.07718247
0.025215471 0.030697174 -0.0696723 0.034110017 0.034865554 -0.032100033 0.07257297 0.09053361
-0.036920417 0.05059312 0.07933182 -0.04102787 0.05537536 0.058614887 -0.05239024 0.04538795
0.058153428 -0.0556111 0.022360811 0.015350107 -0.064530775 0.032194912 0.006447507 -0.045930218
0.03637533 -0.0002040678 -0.037396014 0.03548784 0.0045405272 -0.04357816 0.019525576 -0.0118175
-0.05675947 0.007879091 -0.024123171 -0.08077648 -0.014127802 -0.04780823 -0.0724677 -0.018742923
-0.033340883 -0.06305008 0.0032347944 -0.021605004 -0.087273866 -0.0014788783 -0.025880083 -0.105789185
-0.009881153 -0.024069127 -0.099060714 -0.0065592267 0.0021648488 -0.0674692 0.036272958 0.046992652
-0.03129933 0.048331313 0.0772315 -0.031094743 0.04920489 0.066832185 -0.027121602 0.052690808
0.07142088 0.010772112 0.09573525 0.10458679 0.008141148 0.08761206 0.10099906 -0.055841845
00000000: 0333 be3c dde8 e63d aa97 303e ecb0 96bb
00000010: a39b d43d e3c1 2a3e b89f e1bc 0ad8 a33d
00000020: 5551 fe3d 8a2b 8abd 73da 093d f67f 6c3d
00000030: 5fa6 98bd e123 123d adf5 403d 1c20 8bbd
00000040: 56c6 2d3d da50 523d d60d 0bbd 6095 a33d
00000050: fd80 af3d cbad a1bc 88cd b13d efcd d33d
00000060: 0c92 7fbd d100 e23c 44e1 653d 7e4d 7cbd
00000070: 4f99 873d 7e00 8a3d 65ac babd 40d3 a83c
00000080: 589c a13c 1aff 7abd dac2 353d 08da 4e3c
00000090: f2bf 2dbd 4fad 3a3d 4d32 033d 57a6 73bd
000000a0: 8c42 003d 810c 8ebb 0906 d7bd d6dc 70bc
000000b0: 66e5 8fbd 2567 94bd 3408 62bc 8eab 71bd
000000c0: f1bd 80bd 100a e53b b6a2 fdbc 4fdf 6cbd
000000d0: bf97 9b3c 1ad9 0ebc afa8 bfbc f340 0b3d
000000e0: 35e7 ae3c 7248 ddbc 1ac3 313d 54e2 2d3d
000000f0: 70f9 cdbd eb93 a7bc 8645 b3bc e2d9 fabd
00000100: b46a f6bc 44bd 41bd 2a06 d9bd 96ac 713b
00000110: 7afa 9eba 8fda 08be d9ba 9bbc 9c83 1cbc
00000120: 7862 c9bd 3aa7 1f3c f0ac ec3c 580a 63bd
00000130: 0df8 953c a17f 0b3d 5a06 74bc 6ded 823d
00000140: d2ae 9c3d 18fb 6e3b 3ce7 b93d aef2 c63d
00000150: f055 31bc ccc2 913d feaa cc3d 9b1d 25bd
00000160: d886 653d f2d5 723d caad a3bd 0a9a 9d3c
00000170: 384f 1c3d d007 f9bd 3df8 01bd 8bbb febc
00000180: a151 c1bd 7df2 aaba dbca a2bc 3f25 58bd
00000190: 674e 113d c777 663c e34d f9bc e507 833d
000001a0: 75c5 533d 2a37 4dbc 7e15 b03d 3d63 303d
000001b0: 1bee 3ebd d755 523d 01ab 443c 19a4 3abd
000001c0: 7bbf 713d 0986 c23c 97ce 42bd ca56 493d
000001d0: 9d1f 863c a19a 0cbd 5dee 7b3d 658c 7b3c
000001e0: 0123 01bd 4a36 5c3d 7f11 c53c 8d82 88bd
000001f0: 47c7 193d 79cb 21bd f512 b0bd 9b00 e33c
00000200: 25de 9bbd a560 8cbd 0141 303d 04e3 73bd
00000210: 4aaa 9bbd e398 023d 425f 97bd a506 9fbd
00000220: 7053 193d 033d 83bd 30c4 cdbd 7690 c33b
00000230: 7ecf 94bd 98e6 9dbd f1bc e93c 9189 15bd
00000240: 0651 74bd 9e5a 4c3d f5f2 d4bb 5b6d 2dbd
00000250: b100 883d d969 803c 93fd 4ebd 873a 9e3d
00000260: d0e1 cc3c 4802 acbd 2f54 8c3d 6834 483c
00000270: 8175 abbd 2c04 993d fc9a 2a3c a76d 70bd
00000280: 1ed9 bf3d 94dc 333c 1742 39bd e801 e63d
00000290: d045 183d f7b1 90bd f367 b53d 1b35 e7bb
000002a0: 991b dbbc 3fa9 423d 2510 a63d ce80 35bd
000002b0: cb76 4e3d 3ca0 dc3d 4735 2abd 58b0 393d
000002c0: e978 c13d 1980 02be 0d24 01bd 5edb 17bc
000002d0: d95b b6bd 36aa 8c3c 59c2 d63c d811 9ebd
000002e0: ad90 ce3c a478 fb3c 5ab0 8ebd f2b6 0b3d
000002f0: 2fcf 0e3d 537b 03bd 23a1 943d af69 b93d
00000300: dd39 17bd bb3a 4f3d b978 a23d d70c 28bd
00000310: 46d1 623d 2a16 703d 2697 56bd b7e8 393d
00000320: 4a32 6e3d 77c8 63bd 052e b73c 047f 7b3c
00000330: b628 84bd d0de 033d 9c45 d33b 5321 3cbd
00000340: 4cfe 143d 08fb 55b9 902c 19bd b35b 113d
00000350: b4c8 943b 037f 32bd 1af4 9f3c 309e 41bc
00000360: 9e7c 68bd 4e17 013c f59d c5bc 246e a5bd
00000370: 4c78 67bc 90d2 43bd f269 94bd c28a 99bc
00000380: 7390 08bd 6620 81bd d8fe 533b fafc b0bc
00000390: a4bc b2bd ecd6 c1ba 7802 d4bc 00a8 d8bd
000003a0: 8fe4 21bc 9e2c c5bc 58e0 cabd c8ee d6bb
000003b0: 23e0 0d3b 4b2d 8abd f492 143d 5e7b 403d
000003c0: ba33 00bd 0ef7 453d 8c2b 9e3d 67ba febc
000003d0: 118b 493d 50df 883d 1f2e debc 51d2 573d
000003e0: 1c45 923d 837d 303c d810 c43d 9931 d63d
000003f0: 7362 053c f46d b33d 98d8 ce3d 6bba 64bd

1.bias f4 [4]
-0.012361648 -0.51632166 0.12864898 0.28127342
00000000: 8288 4abc a82d 04bf 8fbc 033e 1203 903e

2.0.fn.0.weight f4 [32, 16, 1]
0.011862881 0.055800784 0.41317108 0.47520202 -0.1041464 0.04906786 -0.2078498 -0.46139872
0.088306256 -0.42753586 -0.32147533 -0.13157715 0.2958796 0.40849754 -0.29274932 -0.32236418
-0.46155992 0.08261664 0.37831077 -0.15195775 -0.07955337 -0.040803008 0.056011673 0.1533591
-0.16481914 0.36281076 -0.08720027 -0.15312824 -0.10681651 0.24102405 0.39459652 -0.38668638
-0.3005334 0.089600675 0.32123438 0.13159831 -0.2410207 -0.47129017 -0.007479418 -0.013725877
0.35130113 -0.25877172 0.05076781 0.0038746907 -0.024746595 -0.28526208 0.4631326 0.1277187
0.6060802 0.10733735 0.24109387 0.3374419 0.2906904 -0.60189146 -0.24669269 -0.083521634
-0.25969425 -0.55584097 -0.31962845 0.29280603 0.49265313 0.24754035 0.1545867 0.42860726
-0.3305176 0.1796824 -0.29299203 -0.041901786 -0.15546545 0.11941149 0.79270613 0.13946664
-0.12966482 -0.022549136 0.2703056 -0.37827238 0.1964424 0.4456774 0.1870296 -0.48725393
-0.596761 -0.24957432 0.3561001 -0.21492015 -0.32611057 0.028909534 0.061360475 0.32459673
0.28719345 0.08109157 -0.05959644 -0.013611078 -0.112355635 0.315636 -0.08553094 0.01498657
-0.75704545 0.019020282 0.16067477 -0.2093765 0.6187399 -0.10581938 0.19668554 -0.13401864
-0.36598682 -0.14966144 -0.09448677 0.13316932 0.073552 -0.23940185 -0.27366722 0.3029769
0.15455909 -0.32139927 -0.14878912 0.7796011 -0.22683622 -0.034999136 -0.4251798 -0.23135374
0.0051627285 0.07603283 -0.24040218 -0.3294074 0.48219964 0.35356614 0.1657394 0.84243995
-0.11658484 -0.103571445 0.042959344 0.2843868 -0.5253261 0.4069419 0.033053372 -0.32744086
-0.39208645 0.052760065 0.35767105 -0.1318873 -0.34428483 0.15320441 0.5213018 0.25585222
-0.08172581 0.30119857 0.16404256 -0.15303722 0.52068 0.62875974 0.12245778 -0.043449137
0.57763135 0.20000376 -0.13852571 -0.07089161 -0.30159074 0.0596011 0.2758234 0.2767589
0.24969485 -0.102026165 -0.0180543 0.05428679 0.08835143 0.02241403 -0.39576215 0.22074555
0.5065818 -0.23332335 -0.17936593 -0.24303639 0.50789666 0.41568318 0.13121338 0.5129378
-0.0903199 0.049160168 -0.19403 0.04989409 -0.24145685 0.29505786 0.38696158 -0.52209884
0.07711403 0.388697 0.16806649 -1.1592542 -0.044481453 -0.15825717 -0.4744011 -0.6598199
0.4418172 0.19625129 0.08238726 0.15940943 -0.35507965 -0.31070346 0.067618735 -0.02324187
-0.51400495 -0.43498403 -0.45414528 0.23823884 0.18740389 0.024261687 0.036118094 -0.053666014
0.35712075 0.15295394 0.126903 0.0072804107 0.0012768456 -0.6303408 -0.35845575 0.40841618
-0.54042894 -0.52976185 -0.19452448 0.562372 0.17245547 -0.06061359 0.03774279 -0.069531724
-0.12521225 0.15116596 -0.31087497 -0.3235221 0.31593716 0.2530249 -0.30733863 0.009546909
0.07352669 0.6440656 -0.060922388 -0.49945718 0.15436047 0.41897318 0.1496017 -0.5753751
-0.45148143 0.34737024 0.15373664 0.442208 -0.41906583 -0.31247187 0.39124292 0.07741811
-0.4145126 -0.48467267 -0.04634849 -0.40175894 0.2908595 0.02761245 0.07253954 0.26300552
00000000: 875c 423c 5d8f 643d 298b d33e ae4d f33e
00000010: b54a d5bd 61fb 483d 94d6 54be 743c ecbe
00000020: e9d9 b43d fbe5 dabe 6a98 a4be 29bc 06be
00000030: 887d 973e 9726 d13e 3de3 95be eb0c a5be
00000040: 9551 ecbe ea32 a93d f3b1 c13e d09a 1bbe
00000050: e1ec a2bd 0e21 27bd 7f6c 653d 2b0a 1d3e
00000060: 59c6 28be 55c2 b93e 0e96 b2bd a6cd 1cbe
00000070: 9dc2 dabd 02cf 763e 8e08 ca3e c2fb c5be
00000080: 84df 99be 8f80 b73d d578 a43e b5c1 063e
00000090: 21ce 76be f24c f1be e815 f5bb 80e2 60bc
000000a0: bedd b33e ba7d 84be e8f1 4f3d 86ee 7d3b
000000b0: 5fb9 cabc df0d 92be b71f ed3e b1c8 023e
000000c0: 1228 1b3f afd3 db3d 50e1 763e 2fc5 ac3e
000000d0: 5fd5 943e 8f15 1abf 029d 7cbe 640d abbd
000000e0: a5f6 84be 984b 0ebf 57a6 a3be acea 953e
000000f0: 083d fc3e 387b 7d3e fa4b 1e3e 6972 db3e
00000100: 9a39 a9be aafe 373e 0d03 96be 35a1 2bbd
00000110: 5632 1fbe 038e f43d caee 4a3f 58d0 0e3e
00000120: dbc6 04be f7b8 b8bc 7f65 8a3e ebac c1be
00000130: 3228 493e d42f e43e b084 3f3e 5979 f9be
00000140: 54c5 18bf 6990 7fbe c152 b63e 0714 5cbe
00000150: f7f7 a6be b0d3 ec3c 1f55 7b3d 8b31 a63e
00000160: 050b 933e 5613 a63d 661b 74bd 0001 5fbc
00000170: b61a e6bd 0b9b a13e d82a afbd 3b8a 753c
00000180: bbcd 41bf 6cd0 9b3c ed87 243e cb66 56be
00000190: bd65 1e3f d5b7 d8bd ef67 493e 2f3c 09be
000001a0: a062 bbbe d940 19be 4882 c1bd 8a5d 083e
000001b0: 6ea2 963d c225 75be 1c1e 8cbe ca1f 9b3e
000001c0: bd44 1e3e 728e a4be 2d5c 18be f093 473f
000001d0: c147 68be 415b 0fbd 2bb1 d9be ffe7 6cbe
000001e0: 1b2c a93b 1ab7 9b3d fd2b 76be 16a8 a8be
000001f0: dfe2 f63e 9f06 b53e 97b7 293e 25aa 573f
00000200: 08c4 eebd 441d d4bd 23f6 2f3d 269b 913e
00000210: c57b 06bf b05a d03e f962 073d 54a6 a7be
00000220: 8ebf c8be f01a 583d a920 b73e 770d 07be
00000230: 1a46 b0be 9ee1 1c3e 0974 053f 10ff 823e
00000240: dd5f a7bd b336 9a3e c6fa 273e cab5 1cbe
00000250: 494b 053f 66f6 203f 25cb fa3d b9f7 31bd
00000260: a6df 133f c9cd 4c3e afd9 0dbe 9f2f 91bd
00000270: 1a6a 9abe 4820 743d ba38 8d3e 58b3 8d3e
00000280: 02b0 7f3e 18f3 d0bd 9de6 93bc d35b 5e3d
00000290: 98f1 b43d a19d b73c 56a1 cabe 1f0b 623e
000002a0: 58af 013f 51ec 6ebe b4ab 37be 88de 78be
000002b0: 8405 023f 6dd4 d43e cd5c 063e e44f 033f
000002c0: a4f9 b8bd 2c5c 493d cdaf 46be bf5d 4c3d
000002d0: 7740 77be d311 973e d41f c63e 45a8 05bf
000002e0: f6ed 9d3d 4b03 c73e 9f19 2c3e 7162 94bf
000002f0: 2f32 36bd 2b0e 22be b3e4 f2be f5e9 28bf
00000300: dd35 e23e 19f6 483e a7ba a83d 3a3c 233e
00000310: 00cd b5be 8614 9fbe b17b 8a3d bc65 bebc
00000320: d495 03bf 3ab6 debe bb85 e8be e2f4 733e
00000330: cee6 3f3e 72c0 c63c 91f0 133d e5d0 5bbd
00000340: 88d8 b63e f59f 1c3e dcf2 013e 8390 ee3b
00000350: d45b a73a 045e 21bf 8387 b7be ed1b d13e
00000360: 8d59 0abf 799e 07bf 6d31 47be 9df7 0f3f
00000370: 2b98 303e f545 78bd 2f98 1a3d a666 8ebd
00000380: a437 00be 40cb 1a3e 012b 9fbe b0a4 a5be
00000390: 84c2 a13e 7b8c 813e 7d5b 9dbe a36a 1c3c
000003a0: 2995 963d 7ce1 243f c189 79bd dab8 ffbe
000003b0: ac10 1e3e a783 d63e 3031 193e c84b 13bf
000003c0: 9328 e7be 83da b13e 236d 1d3e 1669 e23e
000003d0: cc8f d6be 50fc 9fbe fe50 c83e 638d 9e3d
000003e0: ff3a d4be 0427 f8be ead7 3dbd 59b3 cdbe
000003f0: 89eb 943e 8133 e23c 9c8f 943d a9a8 863e

2.0.fn.0.bias f4 [32]
0.58187777 0.23668104 0.17672716 -0.024112059 0.1196561 0.552669 -0.14532664 0.50386494
0.49625242 -0.05724463 0.31717747 -0.14179508 0.2699073 0.107562244 0.5864455 0.5711761
0.11641461 -0.33274427 -0.5144363 -0.8116751 0.23727272 0.79560477 0.040879868 0.38751766
0.22461952 0.18580464 -0.32993668 -0.6369119 1.0945023 0.32087433 -0.10404952 -0.052389655
00000000: f1f5 143f 845c 723e f7f7 343e a786 c5bc
00000010: 420e f53d b77b 0d3f 82d0 14be 4bfd 003f
00000020: cc14 fe3e 5879 6abd 1665 a23e bb32 11be
00000030: 4a31 8a3e 9849 dc3d 4b21 163f 9938 123f
00000040: c86a ee3d 755d aabe 19b2 03bf f0c9 4fbf
00000050: 9ff7 723e c1ac 4b3f a671 273d b768 c63e
00000060: a902 663e 9243 3e3e 76ed a8be a90c 23bf
00000070: a718 8c3f a449 a43e ea17 d5bd 8996 56bd

2.0.fn.3.weight f4 [16, 32, 1]
-0.044003844 0.27428207 0.17381291 -0.48996577 0.4391054 0.18628557 -0.9094808 0.09063252
0.77067167 0.2045409 0.0008991115 -0.1150601 -0.085777715 -0.36690986 0.052717037 -0.38830438
0.44770685 -0.33231056 0.70075524 -0.17197117 -0.375054 -0.2131826 -0.123241626 -0.06934744
0.22004868 -0.0006888371 -0.2531335 0.42170718 -0.15540388 -0.056253325 -0.03633016 0.06125377
-0.8007925 0.9246014 -0.52783567 -0.7982532 0.5790481 -0.26876214 -0.3971178 -1.0765505
-0.016960489 0.19240053 -0.50363755 0.66201586 -0.75691175 -0.598552 1.1175182 -0.6634845
-0.20463903 -1.2676008 0.48552433 0.01720596 -0.39341384 1.3495886 0.9666754 0.12623446
0.42627394 -0.56270164 0.65354055 -0.15925421 0.8697523 -0.035272084 -0.15329137 0.107509166
-0.11737801 0.04360953 -0.407695 -0.5577863 -0.15567711 -0.192282 -0.12840414 -0.99868536
-0.06259838 0.13001622 -0.12068039 0.69198406 -0.28765622 -0.13859466 0.49969938 -0.6603984
-0.22667 -0.58279276 0.002022258 0.3005542 0.089239135 0.25312388 0.6008055 -0.25348252
0.42761546 -0.4080852 0.16314764 0.047387663 0.64713734 -0.1375294 -0.4738998 -0.2959375
0.17264247 0.034788087 0.3308551 0.0841331 -0.54219323 -0.4077361 -0.23975208 0.6629406
0.4421427 0.37601054 -0.1282825 -0.40696335 0.68789876 0.79201925 0.12374382 -0.040687945
0.5370574 0.9961442 -0.022981886 -0.13396937 0.1488732 -0.23793224 -0.060436457 -0.7928882
0.08476186 0.260416 -0.6394278 -0.037509978 -0.45397955 0.07156863 -0.71955186 0.15526204
-0.07927757 -0.18074867 0.982212 0.028385881 0.4195846 -0.54123944 -0.11375002 -0.5431104
0.22054175 0.1790114 -0.42880282 0.7066674 -0.791856 -0.30268085 0.22087714 0.230158
0.06990642 -0.196436 0.9577515 -0.47093758 0.37537882 -0.19360739 -0.33461994 0.003936945
-0.28350186 -0.75138545 0.52191275 -0.75244474 -0.4348488 0.090734765 0.18618563 0.66081756
0.45103407 -0.29457802 -0.14785041 0.42834574 -0.24876526 -0.38581818 0.52067167 -0.028023144
0.13246809 0.06865573 -0.05425581 0.10573679 0.43622202 0.43939227 -0.055151667 -0.018078048
-0.021982703 0.27963343 -0.2198576 0.42811593 -0.24589153 -0.7181828 -0.15777493 -0.21610077
0.01721594 0.19164364 -0.2145755 -0.11064582 0.2737633 -0.05135799 0.45745406 -0.021507064
0.26208234 0.091377124 -0.4437856 0.11606918 0.13875324 -0.11393572 0.2312731 -0.17094937
-0.47855252 -0.41412827 -0.31066337 0.2576948 -0.07307539 -0.056922536 -0.047631126 -0.5523301
-0.21436164 -0.11741887 -0.46210957 0.22457619 -0.17619656 -0.25082305 0.0008649004 -0.31058666
0.04280196 0.10045984 0.33266842 -0.4264969 0.6415438 -0.5680282 0.3631719 -0.40582088
0.54483443 -0.19031142 -0.15412563 -0.1457914 0.009854069 -0.46228045 -0.0779422 -0.68000394
-0.2933515 -0.31280276 -0.4878567 0.34384748 -0.5663214 -0.54054105 -0.42209896 -0.5014897
0.01430109 -0.073259115 0.015350964 0.13488486 -0.3237549 0.34346133 0.19905077 0.16985549
-0.86510503 -0.19723219 0.9055734 -0.26087037 -0.13461427 -0.16985507 0.00032733128 -0.009272612
00000000: 603d 34bd b36e 8c3e 03fc 313e cbdc fabe
00000010: 6cd2 e03e a5c1 3e3e bcd3 68bf 8b9d b93d
00000020: bd4a 453f 2b73 513e 5ab2 6b3a a1a4 ebbd
00000030: 3aac afbd 9cdb bbbe d2ed 573d d5cf c6be
00000040: d539 e53e 9c24 aabe b264 333f 3619 30be
00000050: 1407 c0be 8a4c 5abe 1b66 fcbd 0806 8ebd
00000060: 7154 613e 1393 34ba b79a 81be 01ea d73e
00000070: 3222 1fbe e369 66bd efce 14bd 3ce5 7a3d
00000080: bd00 4dbf adb2 6c3f 3d20 07bf 525a 4cbf
00000090: 7f3c 143f 319b 89be 0653 cbbe 68cc 89bf
000000a0: b9f0 8abc a504 453e 64ee 00bf df79 293f
000000b0: f8c4 41bf b43a 19bf d60a 8f3f 1fda 29bf
000000c0: e58c 51be be40 a2bf a596 f83e 83f3 8c3c
000000d0: 8a6d c9be 52bf ac3f 0a78 773f 9b43 013e
000000e0: 9440 da3e 370d 10bf 6f4e 273f 8913 23be
000000f0: 16a8 5e3f 7679 10bd 6af8 1cbe c42d dc3d
00000100: e263 f0bd e89f 323d 66bd d0be 15cb 0ebf
00000110: d269 1fbe 93e5 44be 607c 03be d8a9 7fbf
00000120: 9433 80bd f922 053e 4827 f7bd de25 313f
00000130: ad47 93be c2eb 0dbe 99d8 ff3e df0f 29bf
00000140: 2e1c 68be e831 15bf dc87 043b 3de2 993e
00000150: 02c3 b63d 7499 813e 64ce 193f 76c8 81be
00000160: 6af0 da3e 8bf0 d0be 2d10 273e 9119 423d
00000170: cbaa 253f 82d4 0cbe ffa2 f2be 1f85 97be
00000180: 30c9 303e f47d 0e3d d765 a93e fa4d ac3d
00000190: 2dcd 0abf c9c2 d0be 9281 75be 7ab6 293f
000001a0: 8760 e23e 7484 c03e 7d5c 03be 805d d0be
000001b0: 221a 303f c6c1 4a3f 666d fd3d 67a8 26bd
000001c0: 987c 093f 4e03 7f3f 8244 bcbc 442f 09be
000001d0: 3772 183e 82a4 73be 388c 77bd b9fa 4abf
000001e0: a097 ad3d 3f55 853e 8ab1 23bf 10a4 19bd
000001f0: 0270 e8be 9392 923d 8d34 38bf 03fd 1e3e
00000200: 475c a2bd 2e16 39be 3f72 7b3f 8289 e83c
00000210: cbd3 d63e ab8e 0abf c5f5 e8bd 4809 0bbf
00000220: b2d5 613e c44e 373e 0b8c dbbe 28e8 343f
00000230: 13b7 4abf fcf8 9abe 9e2d 623e 8aae 6b3e
00000240: 192b 8f3d 8526 49be 342f 753f bb1e f1be
00000250: a731 c03e 0441 46be 4e53 abbe 7d01 813b
00000260: 2827 91be cc5a 40bf 139c 053f 38a0 40bf
00000270: 80a4 debe 26d3 b93d 72a7 3e3e 572b 293f
00000280: f0ed e63e eed2 96be 1966 17be 2250 db3e
00000290: 52bc 7ebe f689 c5be bd4a 053f cb90 e5bc
000002a0: b7a5 073e 609b 8c3d 573b 5ebd 888c d83d
000002b0: 7e58 df3e 06f8 e03e b7e6 61bd 6a18 94bc
000002c0: 1215 b4bc 1d2c 8f3e 5a22 61be 0332 db3e
000002d0: fdca 7bbe d4da 37bf c08f 21be 8549 5dbe
000002e0: 7108 8d3c 3b3e 443e aeb9 5bbe 479a e2bd
000002f0: b42a 8c3e c15c 52bd 6b37 ea3e 952f b0bc
00000300: a82f 863e ee23 bb3d de37 e3be aeb5 ed3d
00000310: 5415 0e3e 2157 e9bd dbd2 6c3e 5a0d 2fbe
00000320: d604 f5be 9f08 d4be 450f 9fbe 93f0 833e
00000330: 8da8 95bd 9b27 69bd db18 43bd 8165 0dbf
00000340: 9e81 5bbe 4e79 f0bd a099 ecbe 4df7 653e
00000350: df6c 34be e16b 80be 7cba 623a 3705 9fbe
00000360: 1c51 2f3d e3bd cd3d 8453 aa3e cd5d dabe
00000370: 373c 243f 4c6a 11bf abf1 b93e c1c7 cfbe
00000380: 457a 0b3f ffe0 42be 1cd3 1dbe 574a 15be
00000390: f672 213c 06b0 ecbe 29a0 9fbd bd14 2ebf
000003a0: 2b32 96be af27 a0be 5ac8 f9be c70c b03e
000003b0: 70fa 10bf e660 0abf 5b1d d8be a161 00bf
000003c0: 1e4f 6a3c e008 96bd 9c82 7b3c 421f 0a3e
000003d0: 34c3 a5be 2ada af3e f7d3 4b3e 99ee 2d3e
000003e0: 8677 5dbf 3cf7 49be a9d3 673f cd90 85be
000003f0: 53d8 09be 7dee 2dbe a99d ab39 27ec 17bc

2.0.fn.3.bias f4 [16]
0.018839575 -0.045128264 -0.0009855343 -0.1477043 -0.015129904 0.099740505 0.06642524 0.115777396
0.15638553 0.06281821 0.09101463 -0.13974307 0.068177626 0.06659472 0.040116373 -0.0015481974
00000000: 7455 9a3c 6ad8 38bd 0b2d 81ba cc3f 17be
00000010: 6be3 77bc c044 cc3d f509 883d b31c ed3d
00000020: 8723 203e d5a6 803d e165 ba3d cf18 0fbe
00000030: b6a0 8b3d d062 883d 1151 243d e2ec caba

2.0.norm.weight f4 [4]
2.0372832 0.86124116 1.4764334 1.371286
00000000: d962 0240 4d7a 5c3f c5fb bc3f 4d86 af3f

2.0.norm.bias f4 [4]
-0.20355406 0.35038567 -0.30804107 0.51668674
00000000: 7a70 50be c065 b33e 8fb7 9dbe 9545 043f

2.1.fn.0.weight f4 [2, 4]
-0.73591447 0.25999427 -0.24180382 0.4068121 0.48483813 0.4403858 0.3736507 -0.6190703
00000000: e464 3cbf f81d 853e 6c9b 77be ad49 d03e
00000010: b43c f83e 3f7a e13e 254f bf3e 647b 1ebf

2.1.fn.0.bias f4 [2]
0.9353317 -0.5403264
00000000: e671 6f3f d552 0abf

2.1.fn.3.weight f4 [4, 2]
0.7846066 -0.09730286 -1.1400932 -0.6902934 0.5182986 -0.55682135 -0.94614995 0.7463975
00000000: fadb 483f b946 c7bd 93ee 91bf 11b7 30bf
00000010: 38af 043f d88b 0ebf e236 72bf e813 3f3f

2.1.fn.3.bias f4 [4]
-0.007639343 -0.8434463 0.35011992 -0.36750948
00000000: 7453 fabb 19ec 57bf eb42 b33e 342a bcbe

2.1.norm.weight f4 [4]
1.454135 0.9581469 0.88546276 1.3427124
00000000: 1821 ba3f 1e49 753f b0ad 623f 00de ab3f

2.1.norm.bias f4 [4]
-0.57465255 0.43962055 -0.53531605 0.57274044
00000000: 6e1c 13bf f215 e13e 790a 09bf 1e9f 123f

3.0.fn.0.weight f4 [32, 16, 1]
0.37440112 0.57667464 0.38165477 -0.7958023 0.6906049 -0.27142966 -0.40965894 -0.21102427
-0.4165471 -0.48468783 -0.23748344 0.041366216 0.6676017 0.25298363 -0.02637723 0.14484279
0.60099494 0.11517663 0.1745731 0.2738902 -0.14742932 -0.17884295 -0.55571985 0.009510769
-0.70252633 -0.28051326 -0.28744504 0.3299303 -0.34735015 -0.04661446 -0.05250435 0.32002798
0.45938873 0.43231702 0.4178546 0.051170368 0.33615878 -0.46811825 -0.32486024 -0.11386083
-0.3588348 -0.64329827 -0.6333323 0.119820364 0.5590253 -0.16330816 -0.37984437 0.02102373
-0.17960615 -0.7038477 -0.53021383 -0.58896995 0.25465134 0.3155334 -0.5688243 -0.46791026
0.12772143 0.65633714 -0.08724818 0.03100778 -0.033133354 -0.3944213 -0.84282434 -0.0768711
0.18218403 0.3325849 0.37370005 -0.27463028 0.39831248 -0.23896939 -0.37068772 0.058603667
0.07216038 0.063874766 0.29582366 -0.1430896 0.7230714 0.24356005 0.43372604 -0.22892919
0.5087357 -0.01853979 -0.41670802 -0.1952793 0.60236144 -0.35016653 -0.8909649 -0.36519232
0.31823722 -0.14744954 -0.6008142 0.035246223 0.42389613 0.038790476 -0.15585294 0.741534
-0.24920066 -0.119735785 0.35613912 0.3615152 0.31847727 -0.7228663 0.3456555 -0.2369259
0.15856934 -0.79481417 -0.26488414 -0.11002692 0.6799277 0.083377354 0.37286073 0.13090156
0.31684187 0.1696042 0.057719123 0.5165073 -0.09421337 -0.77710617 -0.24747843 0.08643976
0.09170254 -0.5090983 -0.8021661 -0.20167924 0.51729107 0.27780327 -0.08798696 0.10716499
-0.30495605 -1.1271154 -0.88171947 -0.009711996 -0.63646954 -0.0076238075 0.40406743 -0.40254068
-1.3707396 -0.6277887 0.36035833 0.51697713 -0.32971296 -0.92617214 -1.0398617 -0.30411905
0.0060448307 -0.0033168592 -0.20186277 -0.3968781 0.12471316 0.2916231 -0.18795078 0.27030528
-0.52591515 0.20124033 0.44461605 -0.8115022 0.09227802 0.0507518 0.40639704 -0.5299847
-0.2305006 -0.14112304 -0.19807944 -0.87672853 0.52374935 0.33603686 -0.0021480613 0.41270736
-0.77972996 0.36933142 0.14313307 -0.38558555 0.1675631 0.32364178 0.19807541 -0.38464758
0.012421462 -0.22472094 -0.103116386 0.13884199 0.48629534 0.015825087 -0.9897052 -0.16442674
0.3425022 -0.57170016 -0.64243585 -0.154219 0.43102697 -0.26443768 -0.15218958 0.1508944
0.8125516 0.04092536 0.5210069 0.34819034 0.53090817 -0.5477426 -0.0020711825 0.06376597
-0.2894622 -1.3882787 -0.578535 0.03448025 -0.27268836 -0.3190211 0.32324106 0.31680188
-0.096950725 0.12744519 0.3233059 -0.10440335 -0.11148732 -0.15483744 1.0909338 -0.08062219
0.042288683 0.31707847 0.41638967 -0.07112595 -0.06214556 0.22689106 0.314668 -0.21143425
0.020605057 -0.18129045 -0.43955645 -0.44710425 -0.04072769 0.39864737 0.27138725 -0.11315277
-0.17931095 0.02798806 -0.011994437 -0.7211604 -0.08450882 0.25832155 0.67511535 -0.7267271
0.008002039 -0.3288113 -0.015433252 -0.010493647 0.30348662 0.27435848 0.3700265 0.6045369
0.18248239 0.48775324 -0.094467774 0.38317084 0.32794312 0.35901585 -0.15550259 0.07352599
00000000: 81b1 bf3e f3a0 133f 4168 c33e b3b9 4bbf
00000010: 7ccb 303f d4f8 8abe d1be d1be bf16 58be
00000020: a945 d5be 0129 f8be dc2e 73be 9f6f 293d
00000030: f2e7 2a3f 1287 813e 1015 d8bc ab51 143e
00000040: ceda 193f bae1 eb3d 4ac3 323e 563b 8c3e
00000050: b6f7 16be 9b22 37be a843 0ebf 0ed3 1b3c
00000060: c4d8 33bf 6f9f 8fbe ff2b 93be a0ec a83e
00000070: e1d7 b1be ceee 3ebd cd0e 57bd b5da a33e
00000080: 0035 eb3e a858 dd3e 0af1 d53e 0598 513d
00000090: 011d ac3e 32ad efbe 1554 a6be de2f e9bd
000000a0: 32b9 b7be 32af 24bf 1122 22bf 6164 f53d
000000b0: 481c 0f3f 413a 27be f67a c2be f539 ac3c
000000c0: adea 37be 5d2f 34bf 18bc 07bf bcc6 16bf
000000d0: a961 823e 988d a13e 789e 11bf ef91 efbe
000000e0: 68c9 023e b605 283f 2caf b2bd 0704 fe3c
000000f0: d7b6 07bd 97f1 c9be 56c3 57bf 986e 9dbd
00000100: 738e 3a3e 9148 aa3e 9d55 bf3e 579c 8cbe
00000110: 9def cb3e 64b4 74be c8ca bdbe 660a 703d
00000120: d2c8 933d c6d0 823d 3376 973e 1586 12be
00000130: 351b 393f ce67 793e 5711 de3e 6a6c 6abe
00000140: 813c 023f c2e0 97bc c15a d5be 4cf7 47be
00000150: 5c34 1a3f 0749 b3be 4716 64bf 7dfa babe
00000160: fdef a23e 03fd 16be f6ce 19bf 585e 103d
00000170: ea08 d93e c3e2 1e3d ea97 1fbe 2cd5 3d3f
00000180: 752e 7fbe 0938 f5bd de57 b63e 8518 b93e
00000190: 740f a33e c40d 39bf c2f9 b03e b49c 72be
000001a0: 0060 223e f178 4bbf e59e 87be cb55 e1bd
000001b0: be0f 2e3f bfc1 aa3d 9ae7 be3e 0f0b 063e
000001c0: 1939 a23e b9ac 2d3e e36a 6c3d d339 043f
000001d0: f0f2 c0bd 6ef0 46bf fc6a 7dbe 5407 b13d
000001e0: 8bce bb3d 4454 02bf c25a 4dbf 0185 4ebe
000001f0: 306d 043f 3b3c 8e3e 8232 b4bd 5179 db3d
00000200: 3323 9cbe 5145 90bf 5eb8 61bf 101f 1fbc
00000210: abef 22bf 22d1 f9bb ede1 ce3e d019 cebe
00000220: 6574 afbf c3b6 20bf e380 b83e 9d58 043f
00000230: 23d0 a8be 9e19 6dbf 301a 85bf 7eb5 9bbe
00000240: b713 c63b aa5f 59bb 1db5 4ebe 9b33 cbbe
00000250: 9d69 ff3d 9f4f 953e 2b76 40be 7465 8a3e
00000260: 60a2 06bf f211 4e3e b7a4 e33e 9cbe 4fbf
00000270: 42fc bc3d 1fe1 4f3d 4613 d03e 14ad 07bf
00000280: 5908 6cbe 8f82 10be 56d5 4abe 4871 60bf
00000290: 7014 063f 060d ac3e 7dc6 0cbb 614e d33e
000002a0: 629c 47bf 0219 bd3e 7a91 123e 786b c5be
000002b0: a995 2b3e 60b4 a53e 48d4 4a3e 87f0 c4be
000002c0: 6383 4b3c 3f1d 66be af2e d3bd 982c 0e3e
000002d0: b4fb f83e 9da3 813c 525d 7dbf 7c5f 28be
000002e0: 735c af3e f15a 12bf ad76 24bf 96eb 1dbe
000002f0: 91af dc3e 6064 87be 96d7 1bbe 1084 1a3e
00000300: 6203 503f 5aa1 273d b560 053f 0146 b23e
00000310: 99e9 073f dc38 0cbf adbc 07bb bc97 823d
00000320: 6434 94be 1eb3 b1bf df1a 14bf 2a3b 0d3d
00000330: cf9d 8bbe bc56 a3be da7f a53e db33 a23e
00000340: 1a8e c6bd fe80 023e 5a88 a53e 6cd1 d5bd
00000350: 7753 e4bd b58d 1ebe b8a3 8b3f 3f1d a5bd
00000360: e636 2d3d 1c58 a23e 0731 d53e 7baa 91bd
00000370: 588c 7ebd 2156 683e 2a1c a13e 3882 58be
00000380: f0cb a83c 34a4 39be 8b0d e1be d9ea e4be
00000390: 14d2 26bd 821b cc3e 45f3 8a3e a4bc e7bd
000003a0: 4a9d 37be 3747 e53c 5184 44bc f89d 38bf
000003b0: f612 adbd b942 843e 5cd4 2c3f ca0a 3abf
000003c0: fc1a 033c f459 a8be c0db 7cbc 8ced 2bbc
000003d0: 9962 9b3e b778 8c3e 1d74 bd3e eec2 1a3f
000003e0: aadc 3a3e cbba f93e 5278 c1bd f82e c43e
000003f0: 29e8 a73e edd0 b73e 123c 1fbe cb94 963d

3.0.fn.0.bias f4 [32]
-0.2352065 0.82469946 -0.09576428 0.9050551 0.95309746 -0.36452684 -0.46872708 0.26702437
-0.15348126 0.4624981 0.0774464 -0.4441868 -0.15369451 0.22251593 0.49643296 0.55688566
0.8392106 -0.08903738 -0.1576897 -0.683991 -0.30191836 0.37064746 -1.1474453 0.61949086
1.1544929 0.24110326 0.3601223 -0.076610416 -0.2700086 -0.6593477 -0.15550199 0.3947423
00000000: f9d9 70be 811f 533f 1020 c4bd b1b1 673f
00000010: 32fe 733f 43a3 babe fffc efbe 6bb7 883e
00000020: 312a 1dbe 8dcc ec3e 389c 9e3d 746c e3be
00000030: 1862 1dbe 37db 633e 762c fe3e 0f90 0e3f
00000040: 82d6 563f 3b59 b6bd 6979 21be 091a 2fbf
00000050: 0b95 9abe 81c5 bd3e 7ddf 92bf f496 1e3f
00000060: 6cc6 933f c6e3 763e f361 b83e ece5 9cbd
00000070: 913e 8abe 03cb 28bf ea3b 1fbe aa1b ca3e

3.0.fn.3.weight f4 [16, 32, 1]
0.56920326 -0.8033935 -0.59025425 -0.35361478 -0.30289483 -0.5014881 -0.2776032 0.31595364
-0.5752232 -0.014649803 0.23769455 -0.015212184 -0.7272481 -0.5192335 0.37560394 0.19643398
-0.4507287 -0.2832907 -0.25847644 -1.0655785 0.16192894 -0.057721876 0.3250512 0.4388887
0.30379993 -0.91797936 0.43765613 -0.7233544 0.3503933 -0.20807879 -0.39044115 -0.30150232
0.19454096 -0.66571707 -1.2766066 -0.09848669 0.35836798 -0.7865783 -0.5917137 -0.90956455
0.51863277 0.88794523 0.97292876 -1.2723016 -1.0319886 -0.27937087 1.0189787 0.18655449
-0.46680382 -0.8891792 -1.3189328 -0.30241743 0.6434263 0.45384294 0.2619373 0.079489164
0.105015375 -0.1548934 0.5243567 -0.9340706 0.83437294 -0.22539832 -1.116306 -0.821275
-0.008351378 -0.44916347 -1.1967528 -0.107915446 -0.07185818 -1.3084288 -1.0455852 -0.9716847
0.9720999 1.109768 1.0484054 -0.8539278 -1.4638749 -0.51504236 0.7207112 0.75916487
-0.9136493 -1.1927294 -0.9764448 -0.8525077 0.8419366 0.7821384 0.8698346 0.7367058
0.46225417 -0.44012904 0.42456764 -0.7410932 0.6815438 -0.5336335 -1.0240828 -0.84247965
0.6364438 -0.86556333 -0.8842729 -1.5209733 0.3436842 -1.1966691 -0.44295958 -0.37563133
0.09947951 -0.061537635 -0.19918714 -0.67349285 -0.46157974 -0.3186593 -0.077464044 0.3561372
-0.21011746 -0.6396494 -0.80155915 -1.80036 0.70877343 0.56949234 0.5760068 1.041429
1.1966022 -1.3568864 0.51357603 -1.1143141 0.056633893 -0.41799822 -0.41110453 -0.59307265
0.5763864 -0.7737631 -0.31340614 -0.30825946 -0.09015784 -1.1219455 -0.9509548 -0.73602784
0.016357085 0.51085514 0.34200633 -0.58795357 -1.230306 -0.4262454 0.45419556 0.13085842
-0.49008983 -0.5961424 -0.72628134 -0.752171 0.44075397 0.48282158 0.2557383 0.45124003
-0.13723128 -0.88900787 0.45630422 -0.9992292 0.7544991 -0.39482805 -1.0229017 -0.61897963
0.28117946 -0.2970426 -0.833253 -0.230424 -0.002670537 -0.13604854 -0.55736864 0.18386199
0.31229883 -0.35123065 -0.06524394 -0.5174953 -0.37670058 -0.47870037 0.24900307 -0.13025552
-0.23481242 -0.33173335 -0.31571174 -0.31674904 0.6118945 -0.14012973 -0.13520624 0.3344249
0.30190286 -1.1647067 0.60552394 -0.37302792 0.21643876 -0.24083766 0.47109184 0.3713602
0.2533631 -0.16331762 -0.6867322 0.22435659 0.52569366 -0.119199805 -0.81770456 -0.44937602
0.3124819 0.29147136 0.4162541 0.11378731 -1.1440816 -0.7154549 0.64360774 0.40624785
-1.008472 -0.23179112 0.049807254 0.32543784 0.35064396 0.22261144 0.49686414 0.2594277
0.06037366 -0.6242001 0.46555185 -0.520377 0.92058086 -0.67369974 -0.5910758 0.11094314
0.45620033 -1.1000661 -0.866166 -0.10929887 0.6944199 -0.93856287 -0.7794096 -0.42791715
-0.1461751 0.27484283 0.5644335 -0.4083741 -1.1792529 0.22238256 0.21278094 0.9836225
-0.79767185 -0.50827295 -0.54677796 -0.7207562 0.501254 0.7776642 0.7259567 0.7071789
0.11613106 -0.84119874 0.805261 -1.1516774 0.1455411 -0.39189905 -0.8094469 -0.8264478
00000000: 4eb7 113f 32ab 4dbf e71a 17bf ff0c b5be
00000010: 0815 9bbe 8661 00bf 0222 8ebe adc4 a13e
00000020: d441 13bf ba05 70bc 3366 733e 863c 79bc
00000030: ee2c 3abf 7dec 04bf 294f c03e fd25 493e
00000040: eac5 e6be 7b0b 91be 0657 84be e064 88bf
00000050: b3d0 253e c66d 6cbd 1c6d a63e 05b6 e03e
00000060: aa8b 9b3e b200 6bbf 7714 e03e c12d 39bf
00000070: c066 b33e 9b12 55be e7e7 c7be 835e 9abe
00000080: bf35 473e 6f6c 2abf d867 a3bf 64b3 c9bd
00000090: 027c b73e 325d 49bf 8d7a 17bf 39d9 68bf
000000a0: 1ec5 043f 6150 633f dc11 793f c7da a2bf
000000b0: 3418 84bf b309 8fbe e56d 823f 2408 3f3e
000000c0: e900 efbe 40a1 63bf cad2 a8bf 75d6 9abe
000000d0: 96b7 243f 1a5e e83e a51c 863e 37cb a23d
000000e0: 4d12 d73d 609c 1ebe 3e3c 063f 401f 6fbf
000000f0: 7799 553f d1ce 66be 1de3 8ebf 143f 52bf
00000100: 38d4 08bc c1f8 e5be 322f 99bf c602 ddbd
00000110: 622a 93bd 987a a7bf bcd5 85bf 54c0 78bf
00000120: 8adb 783f e10c 8e3f 2632 863f 039b 5abf
00000130: 4160 bbbf d1d9 03bf 8780 383f a158 423f
00000140: ece4 69bf 5bab 98bf 49f8 79bf f23d 5abf
00000150: 2889 573f 393a 483f 7bad 5e3f c098 3c3f
00000160: 94ac ec3e 9858 e1be ee60 d93e 49b8 3dbf
00000170: a879 2e3f 349c 08bf 2515 83bf bfac 57bf
00000180: fbed 223f 8f95 5dbf b55f 62bf 41af c2bf
00000190: 60f7 af3e 742c 99bf 99cb e2be c052 c0be
000001a0: eabb cb3d e30e 7cbd b7f7 4bbe 076a 2cbf
000001b0: 2e54 ecbe 5027 a3be 78a5 9ebd 9d57 b63e
000001c0: 0829 57be 10c0 23bf fb32 4dbf 3272 e6bf
000001d0: 2d72 353f 40ca 113f 2f75 133f 8c4d 853f
000001e0: 432a 993f 74ae adbf b879 033f d8a1 8ebf
000001f0: f1f8 673d dd03 d6be 4b7c d2be 9cd3 17bf
00000200: 0f8e 133f 5715 46bf c576 a0be 2fd4 9dbe
00000210: aca4 b8bd e99b 8fbf c671 73bf 526c 3cbf
00000220: 4bff 853c 67c7 023f 741b af3e 2084 16bf
00000230: ab7a 9dbf d63c dabe 528c e83e c0ff 053e
00000240: 0eed fabe ca9c 18bf 93ed 39bf 478e 40bf
00000250: 81aa e13e 6434 f73e 21f0 823e ef08 e73e
00000260: 5b86 0cbe 0596 63bf b5a0 e93e 7ccd 7fbf
00000270: da26 413f e726 cabe 71ee 82bf 7375 1ebf
00000280: c1f6 8f3e f815 98be 1250 55bf 45f4 6bbe
00000290: 2d04 2fbb 4f50 0bbe b6af 0ebf 5146 3c3e
000002a0: a2e5 9f3e 81d4 b3be 9d9e 85bd 927a 04bf
000002b0: e6de c0be 3718 f5be a9fa 7e3e b461 05be
000002c0: ab72 70be f4d8 a9be f8a4 a1be ee2c a2be
000002d0: 1ea5 1c3f 2b7e 0fbe 8173 0abe be39 ab3e
000002e0: 0393 9a3e 1c15 95bf 9e03 1b3f 84fd bebe
000002f0: 1fa2 5d3e 269e 76be f332 f13e ed22 be3e
00000300: cfb8 813e bc3c 27be aecd 2fbf bcbd 653e
00000310: dc93 063f 071f f4bd 1655 51bf 9d14 e6be
00000320: a1fd 9f3e bc3b 953e 421f d53e 5209 e93d
00000330: 4471 92bf 0d28 37bf 7ac3 243f b8ff cf3e
00000340: 9c15 81bf a75a 6dbe b102 4c3d ca9f a63e
00000350: 9b87 b33e 41f4 633e fa64 fe3e b5d3 843e
00000360: 5f4a 773d 94cb 1fbf d05c ee3e 6d37 05bf
00000370: 30ab 6b3f 9677 2cbf be50 17bf 2836 e33d
00000380: 1793 e93e f7ce 8cbf 0ebd 5dbf 16d8 dfbd
00000390: 81c5 313f a845 70bf 6387 47bf f517 dbbe
000003a0: edae 15be 33b8 8c3e b77e 103f 6916 d1be
000003b0: c2f1 96bf 41b8 633e 3fe3 593e afce 7b3f
000003c0: 3934 4cbf 2d1e 02bf a4f9 0bbf 7a83 38bf
000003d0: 2f52 003f 0015 473f 4cd8 393f ad09 353f
000003e0: 1fd6 ed3d cd58 57bf 9625 4e3f 2a6a 93bf
000003f0: ba08 153e fea6 c8be e937 4fbf 1592 53bf

3.0.fn.3.bias f4 [16]
-0.001693245 -0.034698986 0.15057169 0.026009051 0.014879203 -0.09778824 0.16574557 0.03654232
0.060149238 -0.16811104 0.025474286 0.12403218 -0.1383393 -0.13446243 0.0005367157 0.08578246
00000000: e0ef ddba 8620 0ebd 772f 1a3e ef10 d53c
00000010: e7c7 733c 3345 c8bd 35b9 293e 66ad 153d
00000020: 0c5f 763d 4d25 2cbe 73af d03c 9504 fe3d
00000030: d1a8 0dbe 85b0 09be 62b2 0c3a b7ae af3d

3.0.norm.weight f4 [4]
1.6253064 1.437904 2.0618207 2.094181
00000000: 0a0a d03f 3d0d b83f dff4 0340 1007 0640

3.0.norm.bias f4 [4]
-0.05580335 0.106338054 -0.71915936 0.89987403
00000000: 0e92 64bd c4c7 d93d d41a 38bf 255e 663f

3.1.fn.0.weight f4 [2, 4]
-0.4514889 -0.09131539 0.48778734 -0.7704785 0.74464774 -0.17639537 -1.4748834 1.0422845
00000000: 8e29 e7be 9003 bbbd 43bf f93e 143e 45bf
00000010: 3ca1 3e3f fda0 34be fbc8 bcbf 9469 853f

3.1.fn.0.bias f4 [2]
-0.36197725 0.70381045
00000000: 1555 b9be ec2c 343f

3.1.fn.3.weight f4 [4, 2]
0.14509739 -0.97828984 0.74221367 1.8270396 -0.15020351 -1.2451423 -1.7819984 0.09728034
00000000: 6994 143e 3471 7abf b701 3e3f 6fdc e93f
00000010: f3ce 19be d360 9fbf 8618 e4bf ea3a c73d

3.1.fn.3.bias f4 [4]
-0.004299352 0.25025317 -0.43200174 0.75180507
00000000: 94e1 8cbb 2f21 803e 552f ddbe 4c76 403f

3.1.norm.weight f4 [4]
1.804406 0.7478759 2.3387678 1.9758258
00000000: c7f6 e63f cc74 3f3f 5fae 1540 dce7 fc3f

3.1.norm.bias f4 [4]
0.60470754 0.23086178 -0.63554084 0.6455811
00000000: 1dce 1a3f 0867 6c3e ceb2 22bf ce44 253f

4.weight f4 [4]
2.8976326 2.9297404 2.6494133 2.418495
00000000: d072 3940 de80 3b40 fd8f 2940 9fc8 1a40

4.bias f4 [4]
-0.1083805 0.30155757 0.15780608 1.1766123
00000000: 98f6 ddbd c165 9a3e eb97 213e 3b9b 963f

6.weight f4 [15, 4]
0.7650227 0.17076683 -0.03233926 0.31492397 -0.25989756 -0.7720695 -0.041239038 0.6376316
-0.19885889 0.77087927 -1.0967423 0.3816881 0.826005 -0.030770348 -0.6537373 -0.031478345
1.4318063 -0.8077829 -0.4698624 -0.92369926 0.9290857 -0.8199872 0.15018366 -0.0642071
-0.52557915 0.81716496 0.19604795 0.9624819 -1.1604941 1.4026513 0.039632585 -1.1172029
0.7697671 0.2930153 0.27832478 -1.0592465 0.9653485 0.15585084 -0.6362882 0.30338454
-0.6070775 0.83692646 -1.401969 0.55421406 -0.5594878 0.07968273 0.6888484 -1.3435909
0.10144244 -0.66926366 0.98779327 -0.19385299 0.37945738 1.089181 0.6043924 -1.5979519
-0.25476354 -0.20633115 0.94060725 0.3211315
00000000: 87d8 433f 80dd 2e3e 2c76 04bd b73d a13e
00000010: 4b11 85be 59a6 45bf 44ea 28bd d33b 233f
00000020: aaa1 4bbe 5858 453f 0d62 8cbf 9f6c c33e
00000030: 1075 533f 1912 fcbc 545b 27bf 70ef 00bd
00000040: 6e45 b73f dcca 4ebf ce91 f0be 8e77 6cbf
00000050: 8fd8 6d3f aeea 51bf bfc9 193e 037f 83bd
00000060: 5b8c 06bf b931 513f cbc0 483e 3765 763f
00000070: 128b 94bf 148a b33f c755 223d 8100 8fbf
00000080: 750f 453f 1a06 963e 9680 8e3e 6495 87bf
00000090: 1421 773f 5d97 1f3e c9e3 22bf 3855 9b3e
000000a0: 6e69 1bbf d040 563f b873 b3bf f9e0 0d3f
000000b0: 983a 0fbf b330 a33d 5e58 303f c9fa abbf
000000c0: 0ec1 cf3d dd54 2bbf 05e0 7c3f 6681 46be
000000d0: 3d48 c23e 486a 8b3f 76b9 1a3f b089 ccbf
000000e0: 5e70 82be 7948 53be a3cb 703f 596b a43e

6.bias f4 [15]
1.1460795 0.0007020015 0.7387162 0.7278731 -1.4049764 -0.8299076 0.822652 -0.9268374
0.38574296 0.037654754 -0.35618436 -0.10973064 -0.41772225 -0.9602457 0.55632436
00000000: bcb2 923f 8606 383a 811c 3d3f e455 3a3f
00000010: 44d6 b3bf d374 54bf 5299 523f 3745 6dbf
00000020: 1a80 c53e df3b 1a3d cc5d b6be 75ba e0bd
00000030: b1df d5be aad2 75bf 466b 0e3f
