mlp_mixer_vegetables_32.pth (torch, 175132 bytes, 30 tensors)

1.weight f4 [7, 3072]
00000000: bceb c63a e52f f9bc 6f88 20be 981a 6a3d
00000010: 152c e53c 8423 e1bd a276 e13c 19a6 b63c
00000020: e7d0 dfbd 5c5b 0b3d ed84 d73c a2eb 79bd
00000030: 02ff 273a 9c43 833c 034e 5fbd 2210 60bd
00000040: 4bc8 77bc 796a 87bd 206c 19bd 60c9 aabc
00000050: 822c 29bd 9278 f6bc 6e0e b93b 3a69 45bd
00000060: 3779 07bd 8719 18bd 9e69 bcbd 27ce cd3b
00000070: 73cc 36bc 2eae 84bd 4b03 803d ae11 803d
00000080: c02b 88bb 3386 4cbc f17f e23a d13b dabd
00000090: c0ee 8dbd ea16 95bd c02a 43be 7f39 26bd
000000a0: f5b1 54bc d7d2 02be f7e0 0dbd 4876 9cbb
000000b0: bb0d 7ebd 6ede 323d 59ff 653d 77fc 873d
000000c0: 8d23 083d 83a4 7ebc 2db1 1ebd cc4e 1c3c
000000d0: ca57 7239 7bd4 7cbd 4e39 e23b 5aa5 893c
000000e0: 33ef bdbc 1abb 1fbd f106 68bb 98c2 01bd
000000f0: 4bc3 c1bd cc9a 10bd 806a 95bd 5a12 b8bd
00000100: 4748 1fbd 349a 8dbd e955 4abd fd93 56bd
00000110: 641f f4bd dd90 8cbd 7904 34bc 5b00 04be
00000120: 35bb 73bd e4a0 52bc c79a f3bd ac19 6dbd
00000130: aedd c7bc fd28 0dbe d7c2 81bb b33d 623c
00000140: 91dc 33bd 279b 84bd a75f 1ebd 1ceb bebd
00000150: 5f50 23bd 43cf f8bc 4c9b 61bc 2599 30bc
00000160: 6c18 44bc 27a2 bf3c fe0c c2bd 0138 91bd
00000170: 1f21 86bc 36f4 f0bd 0e7e 90bd 2155 68bd
00000180: 6e89 943d fb48 f63c bec3 a0bd c9c6 ae3c
00000190: 0860 bf3b 9243 b5bd 86cf e13c 535b 64bb
000001a0: cede 8dbd 2c05 49bc c21e 33bc 6f0c 6fbd
000001b0: 665d 8fbc d243 92ba 4017 03bd 7cde e4bc
000001c0: 4099 02bc 195d fbbb 3830 063c e067 303c
000001d0: 7f3e 883d 06ac ffbc f854 93bc c9f9 31bb
000001e0: 90e9 73bd 0746 25bd 121e f7bd 5a0f a4bc
000001f0: 4d3b 0ebd 1817 a9bd 2692 d63c bd73 c43c
00000200: 1ede 97bd 5601 033d 2c3e 0a3d b78f 3bbd
00000210: c7cb 163d 7fc0 2f3d eaa4 1ebd 6da0 333c
00000220: ed8e 9b3c 8bb6 8ebd 504c df3a 7f29 9d3a
00000230: b94e 0cbd fa69 afba 7736 f63c cbc3 113d
00000240: 8b87 403d 732b f03c 2b01 debc bd91 1e3d
00000250: 5811 1c3d 251b 3a3c 46c8 ab39 e828 753b
00000260: d61b 3fbd a94b dbbc 9097 80bc a214 58bd
00000270: 218f 8abd 2635 0cbc a3e9 1fbd 864b 1dbd
00000280: 7dd0 933b 1646 1fbd cd0a 5abc 676f 293c
00000290: 7daf c9bc 84d9 fbbc f88e 1abc ef0d b6bd
000002a0: a48b c7bc c131 a63b 4398 9bbd 32f4 a2bb
000002b0: 1ba7 ad3c de97 5bbc 5930 a33c becf d63c
000002c0: 5300 153c 46cf 50bc c9f3 a7bc 7f32 f73b
000002d0: 4bc8 94bc ff51 08bc 1eda 03bc f61d f3bc
000002e0: 144b f3bc d729 7a3c d61d 07bd 45e2 47bc
000002f0: 6186 be3c 7e39 b1bd 60bb eabc c833 1abd
00000300: bfc9 9f3c e94b f0bc 6092 04be 3be0 693d
00000310: 6923 fd3c bf7c 41bd 079e 0b3d 0c96 473d
00000320: 6b29 6ebc c5b0 bb3c 033f cb3c d6b9 3c3d
00000330: 9452 40ba f59f 25bb 7b67 96ba 3a1a 60bd
00000340: e771 62bd 92b7 67bc 4cf1 87bc 48c0 903c
00000350: ffbe c03d 19de 72bb 57f7 0ebc d365 003d
00000360: 45a6 0dbd a6f8 ffbb 96ba 54bc 8fe8 b63c
00000370: 760d 383c 833d 493c c475 4f3d 0e56 623d
00000380: ed6c f63b 6aed 87bc 09c6 9bbb b71f c4bd
00000390: 3a57 633c df6d dc3c 607c 7bbd ff44 513d
000003a0: 6a30 373d 4e20 b73c 39ec 323c 66c1 f63c
000003b0: 573e 2b3c 8abb 35bc 44b3 74bc 9607 283c
000003c0: 39f1 bbb8 aa70 50bc 1b5e c9bd 1aa3 173c
000003d0: 3780 f9bb baa2 9bbd afb2 443d 4abb 183d
000003e0: 41cc 633b e766 8d3d 85f1 9d3d 6800 803d
000003f0: 233f 873c 27a6 8a3d 29e5 ce3c e6af 1d3d
0.0015176455 -0.030418346 -0.15677045 0.057154268 0.027975122 -0.10993102 0.027522389 0.022295998
-0.10928517 0.034022674 0.026308501 -0.061015733 0.00064085436 0.01602345 -0.054517757 -0.054702885
-0.015123437 -0.06612105 -0.03745663 -0.020847976 -0.04130221 -0.03008679 0.005647472 -0.048196055
-0.033074584 -0.03713372 -0.091998324 0.006280679 -0.011157143 -0.06478535 0.06250628 0.06253372
-0.004155606 -0.012483167 0.0017280561 -0.1065594 -0.069303036 -0.07279761 -0.19059277 -0.040582176
-0.012981881 -0.12775742 -0.03463837 -0.0047748424 -0.062024813 0.043669157 0.05615172 0.06639951
0.03323703 -0.015542152 -0.038743187 0.009540271 0.00023111622 -0.061726075 0.006903804 0.016802479
-0.023185348 -0.038996793 -0.0035404528 -0.03167972 -0.09461077 -0.035303876 -0.07295704 -0.08987875
-0.03888729 -0.069141775 -0.049398337 -0.052387226 -0.1192005 -0.06863568 -0.0109873945 -0.1289076
-0.059504706 -0.012855742 -0.11894756 -0.05788581 -0.024397697 -0.13785167 -0.0039599943 0.013808656
-0.04391152 -0.064749055 -0.03866544 -0.09322187 -0.03987157 -0.030372268 -0.013769936 -0.0107787
-0.011968713 0.02339275 -0.09475134 -0.0709076 -0.016373215 -0.117653295 -0.07055293 -0.05672181
0.07252775 0.030064097 -0.07849835 0.021335023 0.0058403052 -0.08850779 0.027564775 -0.0034844473
-0.06927262 -0.0122692995 -0.010932626 -0.058361467 -0.01750059 -0.0011159128 -0.032004595 -0.02793812
-0.007971108 -0.00767101 0.008190207 0.010766953 0.06652545 -0.031209957 -0.017984852 -0.002715694
-0.059548914 -0.040349986 -0.12066282 -0.020026851 -0.034724522 -0.08256358 0.026192736 0.02398097
-0.07415412 0.031983696 0.033750698 -0.045791354 0.03681543 0.042908188 -0.038731493 0.010963541
0.01898905 -0.06968411 0.0017036293 0.0011990516 -0.034254763 -0.0013383024 0.030055268 0.035587113
0.047004264 0.029317593 -0.027100166 0.038713206 0.038102478 0.011359011 0.00032764877 0.0037408415
-0.046657406 -0.026769476 -0.01569727 -0.052754052 -0.06765581 -0.008557593 -0.039041173 -0.038402103
0.0045109377 -0.0388852 -0.013308239 0.010341502 -0.024619812 -0.030743368 -0.0094335005 -0.08889376
-0.024358578 0.005071849 -0.07597401 -0.004972958 0.021197846 -0.013402907 0.019920515 0.026222106
0.009094316 -0.01274473 -0.020501988 0.0075438614 -0.018161913 -0.008320331 -0.008047609 -0.029677372
-0.029698886 0.015268764 -0.03298744 -0.012199943 0.023257436 -0.08653544 -0.0286538 -0.03764704
0.01950538 -0.029333072 -0.12946463 0.05709861 0.030900674 -0.047238108 0.034086253 0.04872708
-0.014536242 0.022911439 0.02481032 0.046075664 -0.0007336524 -0.0025272344 -0.0011474931 -0.05471251
-0.055284407 -0.014142888 -0.016594552 0.017669812 0.094114296 -0.003705865 -0.008725963 0.031347107
-0.034582395 -0.0078116236 -0.012983939 0.02232769 0.011233678 0.012282732 0.05064942 0.05525785
0.007520309 -0.0165927 -0.0047538322 -0.095763616 0.013875777 0.02690786 -0.06139791 0.05109119
0.044723906 0.022354271 0.010920578 0.030121516 0.010451875 -0.011092076 -0.014935318 0.010255715
-8.961786e-05 -0.012722174 -0.09832402 0.009255195 -0.0076141614 -0.07599397 0.04802197 0.037287988
0.0034759196 0.06904393 0.07712082 0.062500775 0.016509598 0.06769972 0.025255756 0.038497828

1.bias f4 [7]
00000000: 8bad c8be 9f2c 003f 5090 653e 50c0 91bd
00000010: 46c6 d3bb 6847 c8be a5a6 9d3d
-0.39194903 0.50068086 0.22418332 -0.07116759 -0.006462845 -0.3911698 0.076978005

2.0.fn.0.weight f4 [98, 49, 1]
00000000: b870 84bc 26c6 9a3c 9f7e b13d 46fa 2ebe
00000010: dc7a ebbd 68b5 c93d 35eb de3c fcaa a9bd
00000020: f7e8 853d 8d25 8b3e 3dcc 02bd 2a7c be3d
00000030: 95b9 933d 590b a7bd 6eef e33c e95c 43bd
00000040: 6da9 bc3e fc4b d63d 0a25 4abe 910e 88bc
00000050: 0e31 85bd 29e0 283e 9e71 ca3c 2c11 343c
00000060: f9c2 12be e6cb 97bd ae1b 42bd 73a5 2dbe
00000070: 336c 983e ac33 803c 4e17 ecbd 781b d3be
00000080: 280c 1fbe e098 393d b357 69be 6853 a13e
00000090: 5652 433e 0014 4b3e b56f 823d f6b4 88bc
000000a0: b018 1dbd b73d 083e 45fa 373e d8e9 d13e
000000b0: 6f1d 903e 0adc a13d 8153 c63d a951 23bc
000000c0: b0eb 7b3e e411 c13d 5de3 dcbc 8fc8 383d
000000d0: 62db f5bc ae0d d63c 7203 583e 7c37 bf3b
000000e0: 76e2 32bc 66d2 a93d 987c fbbd fc05 0b3c
000000f0: 7439 683e 4c54 8d3e 693a b23d c0a8 613e
00000100: e2fc d63d 37f8 ae3c 7d13 313d 1c5d b2bd
00000110: 354c c83d 7b79 aebd c19a 08be 112a 75bd
00000120: 8b6a 41be 8f0b 58bd fbee 623e 09df 803e
00000130: a952 d3be 5808 af3e 2600 82be 6972 c1be
00000140: d920 ae3d b3de 983e b648 183e ecbe cd3d
00000150: c67a 6d3e 90f8 17be 7257 ddbd 9f69 2bbe
00000160: 3943 193e 94de 393d 2333 ce3d b2de dcbd
00000170: eb98 45bd 3e0d 21be 0d22 db3d f13d a4bd
00000180: 5a2e 7f3e 9d3a f43d 7ae3 37be 6496 03be
00000190: c6ef df3c a8db 44be d4ac 48bd 6ec8 ad3c
000001a0: d947 f63d b040 753d 94a2 25be 129c 773e
000001b0: a809 25bd 6dd2 78be 7cf7 053e 1078 8ebe
000001c0: c1d4 bf3e 97f9 953d 4e73 1ebe abed c43d
000001d0: 39f4 713e 4bf0 13bd 63ba 2cbe 397b 5dbd
000001e0: d68a ddbd 46c5 35be 2cf0 54be 0399 c43e
000001f0: 0a53 cbbc 0427 d83c bd4d 473e f777 68be
00000200: 49f0 6dbe 7abf 28be 53ea a23d 224a 63bd
00000210: d11b 01bd 25bb 31be 2fb9 513d a32a f93c
00000220: 63ec 513c ac41 8f3e 3eb7 8fbc b24e 4bbd
00000230: baa6 983e cb5a c83e fd9e 9bbb b84c c33d
00000240: d2e0 4cbe 1145 9ebc 3d1b 6c3e aa0d 83bd
00000250: ff29 7b3e 0539 063d ddbf 7e3d 3606 113e
00000260: 96bd 8c3d 4e7d d5bc d41e 8bbe fca6 6dbd
00000270: e46d b63c 2493 28be fc31 40be 7d70 b4bc
00000280: afba 62bd bc71 c9bd 68f6 62bc fbc8 adbe
00000290: d845 63be b6c7 a4be 4cf8 bf3d d739 673d
000002a0: 1930 49bd e56b 82bd 0ab3 0bbe d349 8bbe
000002b0: 6350 5bbe 10bd 03bd 3b64 973d 7ec8 b6bd
000002c0: 0b6b dfbd 8b52 c6bd 3cad 75be 39cf 3a3c
000002d0: 5889 4b3e 2f4a 04bb a653 34be adaa 933d
000002e0: a9fd 833e eadd 2439 56d3 d5bd cb38 073e
000002f0: ce47 103e afd8 6bbe 4549 ac3d b537 dd3d
00000300: a456 6bbe 716d ab3e 80e6 643e 7808 873e
00000310: 8ef9 1bbc 7c2a 14be c981 d2bd 4bc6 ff3b
00000320: 9309 cabd 0df1 023d 5c42 87bd 592b 53bd
00000330: 5b3c f7bd f701 c83d e3ab 0a3c 1e6d 133d
00000340: df38 1abe ea96 9c3d 3fee 653d 4121 223e
00000350: f777 733e fce1 0bbb 3fd5 183e 1f12 b9bd
00000360: 74f0 12bd eac8 b03d b290 253c e113 09be
00000370: 7467 0d3e 13bd 0dbe e4d2 173e ca77 02be
00000380: a8ac a537 8816 de3d 3438 373c 6a4f 113e
00000390: ed6c 0ebd 5325 003e b1b3 62be f833 94be
000003a0: e2e9 62be ae40 bcbe 6622 adbd 099d 4d3e
000003b0: 4381 843e 327b b9bd ad15 81be 3265 c2be
000003c0: a24b a3be 63f4 5bbe a1fb edbc 5028 103d
000003d0: ebfc 2f3c 98b2 5a3e bf48 00be 9f4d 383d
000003e0: b61c 093a ae92 f43d ba43 633a 888b 0e3e
000003f0: 4da2 42bd 21e2 8d3c bcef 43be 47ed 8b3e
-0.01616703 0.018893313 0.08666729 -0.17087659 -0.11498043 0.098490536 0.027211765 -0.08284566
0.06538575 0.27177086 -0.031933058 0.09301026 0.07213131 -0.08156461 0.02782413 -0.047696028
0.36848012 0.104637116 -0.19740692 -0.016608508 -0.06503497 0.1649176 0.02471238 0.010990422
-0.14332189 -0.074119374 -0.04738968 -0.16957645 0.2977005 0.01564964 -0.115278825 -0.41231894
-0.15531981 0.04531181 -0.22787361 0.31508946 0.19074377 0.19831848 0.06368963 -0.016687851
-0.038353622 0.13304792 0.17966564 0.4099872 0.28147456 0.07903297 0.09683896 -0.0099682
0.24601626 0.094272405 -0.026963884 0.045113143 -0.030011836 0.02612957 0.21095064 0.0058354717
-0.01091825 0.082920834 -0.12279624 0.0084853135 0.22678167 0.27603376 0.08702547 0.2203703
0.10497452 0.021358592 0.043231476 -0.087091655 0.0978016 -0.08519264 -0.13340284 -0.05985457
-0.18888299 -0.052745398 0.22161476 0.25170162 -0.41274002 0.34186053 -0.25390738 -0.377826
0.08502359 0.29857406 0.14871487 0.10046181 0.23191366 -0.14840913 -0.108076945 -0.1673951
0.1496705 0.045378283 0.10068347 -0.10784663 -0.048241537 -0.15727708 0.10699854 -0.08019627
0.24920025 0.11925242 -0.17957869 -0.12850338 0.027336013 -0.19224417 -0.048992947 0.021213736
0.120254226 0.059876144 -0.161753 0.2418063 -0.040292412 -0.24299021 0.13082689 -0.27825975
0.37467006 0.07322996 -0.15473673 0.09615644 0.2362832 -0.036117833 -0.16867976 -0.054072592
-0.108174965 -0.17751035 -0.20794743 0.3839799 -0.02481987 0.026385792 0.19463249 -0.22702013
-0.23236193 -0.16479293 0.0795485 -0.05549062 -0.03152067 -0.17356546 0.051201995 0.030415839
0.012812707 0.2797979 -0.017543431 -0.049635597 0.29814702 0.3913177 -0.0047491775 0.09536117
-0.20007637 -0.019320043 0.23057266 -0.063990906 0.24527739 0.03276922 0.062194694 0.14162526
0.06872098 -0.026060726 -0.27171957 -0.058020577 0.022269197 -0.1646238 -0.18769068 -0.022026295
-0.055353817 -0.09836146 -0.013852693 -0.33942398 -0.22194612 -0.32183617 0.09373531 0.056451645
-0.049118135 -0.063682355 -0.13642517 -0.2720476 -0.21417384 -0.032162726 0.07392164 -0.089249596
-0.10909089 -0.096837126 -0.23991865 0.011401945 0.19876611 -0.0020185818 -0.17610034 0.07210288
0.25779465 0.00015722928 -0.104407 0.13205259 0.14089891 -0.23031877 0.084124126 0.10801641
-0.2298227 0.33481935 0.22353554 0.2637365 -0.009519948 -0.14469332 -0.10278661 0.007805621
-0.098651074 0.031968165 -0.06604454 -0.05155501 -0.12072059 0.09766 0.008463833 0.035992734
-0.15060757 0.07645972 0.056135412 0.15832998 0.23776232 -0.0021344414 0.14925097 -0.090366594
-0.035873845 0.08632071 0.010105299 -0.1338649 0.13808995 -0.13841657 0.14826542 -0.12741008
1.9749932e-05 0.10844141 0.011182833 0.1419045 -0.03477185 0.12514238 -0.2213886 -0.289459
-0.22159532 -0.36768097 -0.084538266 0.20079435 0.2587987 -0.09056701 -0.2521185 -0.3796783
-0.3189364 -0.21479945 -0.02905065 0.035194695 0.010741453 0.2135719 -0.1252775 0.0449959
0.00052304135 0.119420394 0.0008669455 0.13920414 -0.047518063 0.01731974 -0.1913442 0.27329466

2.0.fn.0.bias f4 [98]
00000000: e4e2 0f3f ef42 0abf 5f5d 5f3d 482b 60bd
00000010: 67e6 11bf 5abb 2e3d 767e 943d b4c0 863e
00000020: 6779 05be b144 203f 746f 1f3e 2893 663e
00000030: 22a2 98bd 766d 02be a072 d13d 8c2a 293e
00000040: 2b61 03bf 7162 77be c079 6e3e 5569 b8bd
00000050: aa62 9a3e d6e2 d93b cdb1 8f3e ca69 d5be
00000060: b246 94be 7987 a13d e167 83be 3493 00be
00000070: 09e3 d4be f93c 983d 72ba fcbc 56bd 2d3e
00000080: d6c7 e5be 1f3c c2be ee71 d93e 0ade c7be
00000090: fa3a 8d3e db44 9e3e fe90 14be 0edc 34be
000000a0: 5c49 323d 00f4 e4bd 973f c13d 1936 1a3c
000000b0: a8d2 ab3d 6622 59be 0b26 073f 192b b53e
000000c0: c4cf 16be cd63 09bd 7bb9 093e 3924 e43e
000000d0: fcfb ccbe 6759 63be a9ff 693e 4b97 0c3e
000000e0: 807e 88b7 cef4 2a3e e636 b7bd 76a6 5cbe
000000f0: dbd4 95be f70c 2cbe 717c e53d 0ac8 3f3d
00000100: 431f 7a3e bf5f 973d 05e2 afbe 5751 bf3d
00000110: 6fec 6d3e 89b3 14be f1e6 12be 69de 66bb
00000120: ae76 1b3e 9f72 ab3d 5b2c bb3d eb6f f83e
00000130: c423 0a3e a489 8cbd 14e8 05be 8dbd 4a3e
00000140: aac5 3e3d 794a 2bbf 69c1 c6bc 2de9 7f3e
00000150: 66b0 333a f5f5 0b3f ef8d f8bd f38c d93e
00000160: b8fb d4bb c8ce 843c d31b 2bbe 1e05 be3e
00000170: f506 1ebf ee17 b8be b089 083e 602c e637
00000180: 8549 a3be 32fe 303e
0.5620558 -0.5400838 0.054532405 -0.054728776 -0.5699219 0.04265914 0.07250683 0.26318896
-0.13034593 0.62604815 0.1556986 0.22517073 -0.074527994 -0.12737069 0.10226941 0.16520137
-0.5132014 -0.24158646 0.23288631 -0.090044655 0.301534 0.0066493554 0.2806534 -0.41682273
-0.28960186 0.078871675 -0.2566519 -0.12556154 -0.41579464 0.074335046 -0.030850623 0.16966757
-0.44879025 -0.37936494 0.42469734 -0.3903659 0.27584058 0.30911908 -0.14508435 -0.17662069
0.043526992 -0.11179352 0.09435957 0.009412312 0.08389789 -0.21204528 0.52792424 0.35384443
-0.14727694 -0.033542443 0.13449661 0.44558886 -0.40036 -0.22202073 0.22851433 0.13729589
-1.627137e-05 0.16694948 -0.08946018 -0.21547875 -0.29263958 -0.1680182 0.11205376 0.04682163
0.24425988 0.07391309 -0.34352127 0.09341686 0.23234724 -0.14521612 -0.1434591 -0.0035227782
0.15181991 0.083714716 0.091393195 0.48522887 0.13490206 -0.0686219 -0.13076812 0.1979887
0.046575226 -0.6691051 -0.024262147 0.24991293 0.00068545935 0.54672176 -0.12136447 0.42490348
-0.006499734 0.016211882 -0.16709833 0.3711328 -0.61729366 -0.35955757 0.13333774 2.74388e-05
-0.31892028 0.17284468

2.0.fn.3.weight f4 [49, 98, 1]
00000000: 0f3c e7bd cf98 eabd 4164 ff3e 5cc7 89bd
00000010: 73bf 90bd 499f dabe 567f 57bd 06c4 ae3d
00000020: 3d15 163e 583b 8a3e d0a6 253e a3b4 9bbd
00000030: 9dd3 19bc 281f b3bd bed1 053e 2dd8 55be
00000040: fde4 16be 8750 d63d 7038 683e 2280 68bd
00000050: e7c1 7ebe c57c bcbc dd2e 35be 25f2 e03d
00000060: 67a8 163d 8815 b6bb ad46 a43e 83ea 4fbc
00000070: d474 443e 36c0 463d 41e0 063f f380 86be
00000080: 62f2 2cbc 2708 bdbe b3ed 173d a140 313e
00000090: b8a6 7fbd a878 b3bd afea 773c d6ad 873d
000000a0: 17ce 30be 525b 223e 6342 51bd b2c3 023e
000000b0: 92b5 443e a150 1fbd 3396 6dbe 4325 acbe
000000c0: cff1 8d3c 56a1 3e3e 8c7a b0bd cedf 6fbe
000000d0: ecb5 d1bc 03ae 303e 275d a7be 644c ee3e
000000e0: cf26 ccbe e38c 163d 872c a33d 49ce 06be
000000f0: c991 9cbd 15e9 af3d d2d6 6dbe 8581 afbe
00000100: 567b 2fbd 2371 2d3e 8822 93bd 8577 afbe
00000110: ffc0 b5be 5369 493d 782a 15be 715f 693e
00000120: 26ae 0b3e 9c46 babd 091a b1bd a915 1c3e
00000130: b71c 37bc a4ea 933d a613 e4bd e953 923b
00000140: 797e b33e af55 d53e 76ec 7fbc 649d 973e
00000150: 057a a33e 1fd0 a03e 1a48 84bd e8c1 6dbd
00000160: 9a11 6abe 238b 203d 3bec 8e3d cbd8 f4bd
00000170: db30 dc3d ff3f 1fbe f97b 353e 8fe1 8dbe
00000180: 4625 423e eab7 a3be fe42 ee3c c125 8a3d
00000190: aba7 e9be 509b fdbe 10d7 f93d 209d 693d
000001a0: 1239 353c 7c9b cdbb 0f9b 8abe 7e2e 1fbe
000001b0: 4b05 30be 064a 003e 7013 f6bc 27a8 43be
000001c0: 3fdf 323d df8f f3be 8289 84be 5bf1 a6be
000001d0: 6b66 fabe e5b1 f33e 593c 803e 97d2 1f3e
000001e0: 4e84 d7be ee73 9f3c a7a1 94be 3951 813d
000001f0: d352 c4be 0dfd a7bd 562c b7be 8930 e4bd
00000200: a3ac e03a 3a5c 3c3d 2e99 f63e 123c 43bd
00000210: 8fe6 033e 4ade 603c fb24 8dbe 0f54 d9be
00000220: b953 f23d 98bd c5be 89da 1b3d badc 99bd
00000230: b86b a0bb 2f77 d23d ef66 bdbd 44a2 003e
00000240: 1e1f 2f3c 50d3 043e 7ca1 a83d c7c5 c03c
00000250: 44ee 1e3f 65bc 343c 34d5 16be 4648 b23d
00000260: f1d9 3bbe 8b72 a9bd 4e16 efbe 694b 61bc
00000270: dc92 0c3d 83b4 06be f716 d43d 87c8 153c
00000280: da54 ec3e c562 91be 4563 e1be 53c9 8bbd
00000290: d757 c13e 779b 463f fd3b 8cbe c6e2 803e
000002a0: 53a5 f9bd 505f 733e c558 1dbe a5cf 5cbe
000002b0: cfbc 13bf 76c0 3b3f dc46 a03e 0b46 13bf
000002c0: ae1a 6d3d 13bd 73be 9eea 6ebe 7c92 17be
000002d0: af0b 623c d1c6 073e 5c20 35be 3c30 413e
000002e0: 0f16 28bc 8bcb 643e 9720 9d3d 5f8c 103f
000002f0: ce3e b2bd 9fa6 cebe 8fff 05bf 338e 533e
00000300: beb0 11be 7c42 f23d 8519 7dbc b44f 173f
00000310: 5a2f adbd 10c0 97bd 6ccc b1bc a99f dd3d
00000320: bade ca3d 7bf1 563e 72d6 9a3e 79f9 ddbd
00000330: f90b 74be 55d6 0bbd a4a7 143e 5491 4f3b
00000340: 17f0 0d3e aebd 11be b179 f4bd 4817 bc3d
00000350: 995b 393e 1973 aebd bcfa 1ebd f73c 123e
00000360: 03da 8a3d d56a 423d e7fe 90bd a468 2e3c
00000370: 6afa 6c3e 2372 c8bd c73d 793c 0179 3e3e
00000380: 2967 8c3e 6e6b c6bd 530b ac3e e97d bf3e
00000390: 187a 1c3d 1384 963d 5f34 cfbd 0503 223e
000003a0: d1c8 35be 0396 ce3d a254 6a3d 34f0 8ebe
000003b0: fde7 9e3e 453e 1b3c e065 ac3e 8141 f33d
000003c0: 8220 403e d889 4dbc 11e9 f03c 1766 673e
000003d0: 9145 02be 68d2 7ebd 11f7 9f3e 05e9 213c
000003e0: 4af0 043e cdad 193e 4ef7 663e 41dd 79be
000003f0: 790a 733d 1490 44bd d3d3 0c3d 5003 ddbd
-0.11290752 -0.11454927 0.49881175 -0.06727478 -0.07067766 -0.4269965 -0.05261167 0.08533482
0.1465654 0.269984 0.16176915 -0.07602813 -0.009388831 -0.08746177 0.13068292 -0.20883246
-0.1473579 0.10464578 0.22677779 -0.056762822 -0.24878655 -0.023008713 -0.17693658 0.109836854
0.036781695 -0.005556766 0.3208517 -0.012690189 0.19185191 0.04852315 0.52685934 -0.26270255
-0.010555835 -0.36920282 0.037091922 0.1730981 -0.062414855 -0.08763248 0.0151316365 0.066249534
-0.17266117 0.15855148 -0.051088702 0.12769964 0.19209889 -0.038895253 -0.23201828 -0.33622178
0.017327217 0.18616232 -0.08617124 -0.23425218 -0.025599442 0.1725388 -0.32688257 0.46542656
-0.3987336 0.036755454 0.07967477 -0.13164629 -0.07644994 0.08589379 -0.23226479 -0.34278503
-0.04284223 0.1693769 -0.07184321 -0.34270874 -0.35498807 0.04917271 -0.14566982 0.22790314
0.13640651 -0.09095499 -0.08647544 0.15242638 -0.01117628 0.072224885 -0.1113656 0.0044655693
0.35057428 0.41666934 -0.0156203415 0.29612267 0.3192903 0.31408784 -0.06459065 -0.05804625
-0.22858277 0.03919519 0.06978651 -0.119554125 0.10751506 -0.15551756 0.17723073 -0.2771115
0.18959531 -0.31976253 0.029084679 0.06745482 -0.45635733 -0.49532557 0.12199223 0.05703461
0.01106097 -0.0062746387 -0.27071425 -0.15545079 -0.17189519 0.12528238 -0.030038565 -0.19107114
0.043669935 -0.47570702 -0.2588616 -0.32606015 -0.48906264 0.4759666 0.25046042 0.15607677
-0.42093128 0.01946446 -0.2902958 0.0631432 -0.3834444 -0.082025625 -0.35776013 -0.1114207
0.0017141294 0.04598639 0.48163742 -0.04766471 0.1288092 0.013724873 -0.27567276 -0.42446944
0.11832375 -0.3862121 0.03805021 -0.075128034 -0.0048956536 0.10276639 -0.09248149 0.125619
0.010688571 0.12971234 0.08233926 0.023531808 0.62082314 0.011031245 -0.14729768 0.08705191
-0.18344857 -0.082738005 -0.46696705 -0.013750889 0.034319744 -0.13154797 0.10355943 0.009142048
0.46158487 -0.28395668 -0.4402105 -0.06825509 0.3776233 0.7758097 -0.27389517 0.25173014
-0.12189736 0.23766828 -0.15365894 -0.21563585 -0.57709974 0.7334055 0.3130406 -0.5752875
0.05788677 -0.23802595 -0.23331687 -0.14801973 0.013796731 0.13259436 -0.17688125 0.18866056
-0.010259165 0.2234327 0.07672232 0.5646419 -0.08703385 -0.40361497 -0.52343076 0.20659713
-0.14227578 0.11829087 -0.015447979 0.5910599 -0.08456297 -0.0740968 -0.021703921 0.108214684
0.09905763 0.20990555 0.30241734 -0.10838599 -0.23832692 -0.03413995 0.14517075 0.0031672316
0.13861118 -0.14232513 -0.11937273 0.09184128 0.18101348 -0.08518047 -0.038813338 0.14281069
0.06779864 0.047465164 -0.07079869 0.010645065 0.231424 -0.09787395 0.015212483 0.18600847
0.27422455 -0.09688459 0.3360239 0.3740075 0.038202375 0.0734941 -0.10117411 0.15821464
-0.17752387 0.10087206 0.05720962 -0.27917635 0.31036368 0.009475295 0.33671474 0.11877728
0.18762401 -0.012545072 0.02940801 0.22597538 -0.1272185 -0.062212378 0.31243184 0.009882216
0.12982288 0.15007706 0.22555277 -0.24400808 0.05933616 -0.047988966 0.0343817 -0.107916474

2.0.fn.3.bias f4 [49]
00000000: 4839 68bd 805a 473a 0e8b 0dbc 5230 cb3d
00000010: f65b a5bc 76bd 9fbd 4a53 2ebc 9dc9 e9bc
00000020: b4e1 8cbd fd42 86bd 0c9f 5f3d 41b0 883d
00000030: e725 da3b e326 36bd f81a 36bb e80b fc3b
00000040: d5ab 523d 1f10 c83d 38be b1bb b811 7abd
00000050: 4025 b7bb 8616 c5bd cc29 013d 91ac e4bd
00000060: cf41 e8bc 1aab 163d 0481 27bd 80f9 c8bd
00000070: d9d5 8fbd 239f cebd 9ddf 0d3d ee2d 45bc
00000080: 5a26 d5bd d4f3 c33c f076 b1bd 7cfa 0bbd
00000090: bbbe a6bd 528f 8d3a 6b32 243d 614f a6bd
000000a0: 765b 2f3d cc50 d03d cdf1 b53d 76f4 b0bd
000000b0: d146 64bd c6db 8c3d b052 1bbd 2d84 13bd
000000c0: 12a5 ab3d
-0.056695253 0.0007604733 -0.00863911 0.09921326 -0.020185452 -0.07799809 -0.010639975 -0.02853852
-0.06878987 -0.06555746 0.05459504 0.06674243 0.0066573503 -0.04447068 -0.002778707 0.007691849
0.051433403 0.097687 -0.005424287 -0.061052054 -0.0055891573 -0.09623437 0.031534 -0.11165727
-0.028351692 0.03678427 -0.040894523 -0.09813213 -0.0702321 -0.10088947 0.034637082 -0.012034876
-0.104077056 0.023919977 -0.08665264 -0.034174427 -0.08141848 0.0010800159 0.040087145 -0.08120609
0.042811833 0.10171661 0.088840105 -0.08640377 -0.0557316 0.06877856 -0.037920654 -0.036014725
0.08381094

2.0.norm.weight f4 [7]
00000000: 8b55 893f fc6e d43f ed8b b73f ed3e 7d3f
00000010: d61e 9b3f b57d b53f 8127 bc3f
1.0729231 1.659637 1.4339577 0.9892414 1.2118785 1.4178988 1.4699556

2.0.norm.bias f4 [7]
00000000: d5d4 47be 79a6 993e cac0 ca3e 470a d73c
00000010: 64bf 58bc 8ee1 4c3d 5899 863c
-0.19514783 0.3000982 0.3960021 0.026250018 -0.013229225 0.050019793 0.016430542

2.1.fn.0.weight f4 [3, 7]
00000000: 9c74 d8be f94e 0f3e 81ae 3d3e 61ab d73e
00000010: 916b cdbe 13e5 babe 579d 3f3e ef62 d0bd
00000020: 5fc3 743c 6e43 c7be 5993 083f 61e9 76be
00000030: 4eb0 2abe 8fb7 553c 292e 923e 5876 e0bd
00000040: e3fc 27bf a699 c03e 3e6a b13e 9fc6 debb
00000050: 2209 42be
-0.42276466 0.1399497 0.18523599 0.4212294 -0.4012113 -0.36502895 0.18712364 -0.1017512
0.014939158 -0.38918632 0.53349835 -0.24112464 -0.16668817 0.013044252 0.28550842 -0.10960072
-0.6562025 0.37617224 0.3465137 -0.00679858 -0.18948796

2.1.fn.0.bias f4 [3]
00000000: 3307 5fbe 1a86 953c c7e0 b53d
-0.2178009 0.018252421 0.088807635

2.1.fn.3.weight f4 [7, 3]
00000000: 0538 783e df41 6a3d 6fc8 dbbe 6c13 69bf
00000010: e175 72bf ea32 eebe 3cd1 103f ebc0 223f
00000020: 55bb 263f 4c96 8cbd 791c f2be 8310 493f
00000030: 5121 50bd 293d a43e e683 c33c 143c ff3e
00000040: c01d 94be 7b96 6abe 5cc8 fe3e de6f 1fbf
00000050: 9c9f eebe
0.2424012 0.057191726 -0.42926356 -0.9104526 -0.9471112 -0.4652322 0.56569266 0.6357562
0.65129596 -0.06864604 -0.47287348 0.7854082 -0.050813023 0.32077911 0.023866605 0.49850523
-0.28928947 -0.22908966 0.49762237 -0.6228007 -0.46606147

2.1.fn.3.bias f4 [7]
00000000: 0510 c83d d200 803d 09e2 313e 2c5d b5be
00000010: e458 803e f19d 283e 8deb 123f
0.097686805 0.062501565 0.17371382 -0.35422647 0.25067818 0.164665 0.5739067

2.1.norm.weight f4 [7]
00000000: f9ae a53f 5d71 4f3f 134b b33f 20d4 c43f
00000010: c8e3 753f d209 883f c3f0 4b3f
1.2944022 0.81032354 1.4007286 1.5377235 0.9605069 1.0627997 0.7966425

2.1.norm.bias f4 [7]
00000000: 73ac 9c3e 742b 03be d1ea a9bd a985 b3bd
00000010: 7efd 7b3e 3ab9 fa3d 95cf 79be
0.30600318 -0.12809545 -0.08296741 -0.08765728 0.24608418 0.122423604 -0.24395593

3.0.fn.0.weight f4 [98, 49, 1]
00000000: 9da0 e43d 8598 e53c ae02 0f3e ee5e 153e
00000010: 736b 33be 7833 81be 4951 b83d 4a82 b33d
00000020: 8e9b 263d 246d a1bd 1047 9a3d da83 2a3e
00000030: 3161 95bd b155 b2be 4840 6f3e d555 7a3d
00000040: ed5a 093e 5df5 c23e 4f5f 833e 939e 35bc
00000050: 038e d63c 319c b13d caed 343d ab49 dbbd
00000060: 898e 5b3e 65ff f03e b70a d93d 3f3a 0abd
00000070: 961a d6bd f599 a4be 0ef3 1a3e 8ebd 41be
00000080: a7a3 c93e 3b1b a73e b3eb 82be c8ac 5d3d
00000090: 9fb3 45bb 57c6 bcbd dcc0 273e bae6 7e3e
000000a0: fbc0 a73e 47f9 9cbb 004b 813d 94ab c4bc
000000b0: 5d27 c8bd 92ff 093e 9d08 043d 0c8a 073e
000000c0: 3be7 debd e6b1 09be c7fc f0bd dab5 1f3e
000000d0: 8d79 473b 884a f43c 9bfb 60be 8c5f 43be
000000e0: 5308 eb3d c852 1ebe 2a94 233e ded9 163e
000000f0: 4f74 043d d712 803e e4ba 69bd 5f74 ad3c
00000100: 5be5 8bbe 7369 aabd 03ac 213d 9146 72be
00000110: 2eaa 2cbe f14f 3dbd f88a a2bc 32c4 5ebe
00000120: 253c d2bd 6333 5abe 077b 2fbe 809c 743c
00000130: 2407 49be 1389 5a3d 9554 8abe dc1e a5bd
00000140: f9e2 2dbe 4c77 a2be dad4 82bd 58e2 a73b
00000150: 189f fcbd ba81 323d bc3f fbbd 03f9 33be
00000160: edec 953c acd8 0ebe f6b1 883b 2aa0 79bd
00000170: 7ae5 373d 07e8 09be 54e3 ad3b 36d2 52be
00000180: 3665 163c 34d5 25be a7c5 94be 1a2d 023e
00000190: 4ea9 4cbe 8abf f7bd 0db4 a6be e303 58bd
000001a0: b1ce 303e 4669 9fbe 9f46 da3d 57ba 2e3e
000001b0: d64d 0dbe 540d a1be 6dfc 4ebe 4347 1dbe
000001c0: 1884 53be 7e35 6b3d b080 abbd b890 eb3d
000001d0: 5f55 1a3e db2c 47be 70ab 04be 6500 dbbb
000001e0: 657a 29be 333e 56be 6ffb ebbe 6406 fcbd
000001f0: be81 1b3e b9e0 64bc fe63 48bd 0dfe 09be
00000200: e905 57be 1692 87be 20e0 94be f65b 08be
00000210: f470 ed3b 8480 afbd a0f1 9abe 72ca 653e
00000220: 9f4d a33e 46ba b53d bc04 e7bd 8215 b9bb
00000230: 7cc5 1ebe 0200 70bd afda 1fbe 48f7 e4be
00000240: 18ca a13d 4dca 05be edad e9bd af31 1ebe
00000250: 20f0 dcbd ea67 78be 70ca a23c b041 a9bc
00000260: 0c6a cd3e 9d32 bbbc f4f1 28be 373f 7abe
00000270: 85d7 babd f809 213e 8e72 303d 66c4 853e
00000280: d046 9d3e 1761 e2bd ec39 94be 5548 223d
00000290: 8914 e93d d169 7f3e 9417 833e ee78 b53d
000002a0: 9dc9 0fbe 1f43 a9be 8934 10be 0b98 e53d
000002b0: 6d3a 873e d78c 5e3e cf3c 41be c3c9 723e
000002c0: b748 1fbe a74f 06be f7d7 9dbd 1c2d bb3d
000002d0: cbb8 bc3d b0cf 8a3d 521a 823c ebd7 d33d
000002e0: 671c d53d 37c5 b73d 72ce 973c 8e8e 31be
000002f0: 1832 5a3e 9ab0 2d3e f42e e53d a271 973e
00000300: bbd4 df3d e53c 393e ab52 533e 363c c03d
00000310: 477a 93be 0601 8bbe 27f1 6b3c 0af9 39bd
00000320: 47dd 8d3b 9caf e23c 6bd9 10be ef76 a13d
00000330: c1d5 1cbe 28d3 bdbc 29c5 adbb 153b c8bd
00000340: f595 15bd 0579 393c 715b 4fbe 3e7b 2ebe
00000350: e32c 5ebe 2999 2fbd 4fb6 9bbe 4d2a 16be
00000360: 1ab4 8fbd 6f91 30bd 32f0 86bc fd7e d3bc
00000370: 345c 1dbe f5a4 88be f16d b8bd 8a81 13be
00000380: 189c e9bc 058d 0fbd f77f 26be c551 e3bd
00000390: ab5d 58be 5d12 73be 6932 e33c 0469 1cbe
000003a0: b21f 94be e834 c63b 1e2f 14bd d00b 383d
000003b0: 63fe 813d f4c2 f33d 6f5a 353b 5cd9 0ebe
000003c0: 9abf 1abc 393b ccbd fd79 27be 5c9d 40be
000003d0: afb9 12be c6ec 10be c264 dbbc 2df2 ca3d
000003e0: 076f be3d 3ded 2abe 360d 553e 5ce3 86bd
000003f0: 5c74 0e3e b764 373d 616b 093e 8247 113e
0.11163447 0.028026829 0.13965866 0.14586994 -0.17521457 -0.2523458 0.08999879 0.08765085
0.040675692 -0.07882145 0.07533085 0.1665186 -0.072939284 -0.34831002 0.23364365 0.061117012
0.13413592 0.38077822 0.25658652 -0.01108517 0.026190763 0.08672369 0.044172086 -0.107074104
0.21441092 0.4706985 0.10597747 -0.033746954 -0.104542896 -0.3214871 0.1513178 -0.18919966
0.3938267 0.32637963 -0.2557045 0.054119855 -0.0030166877 -0.09217518 0.16382164 0.24892703
0.3276442 -0.0047904584 0.06313133 -0.024007596 -0.09773133 0.13476399 0.032234777 0.13236254
-0.108839475 -0.13446769 -0.117669635 0.15596715 0.003043744 0.029820696 -0.2197098 -0.19079417
0.11476197 -0.15461266 0.15974489 0.14731547 0.032337483 0.25014374 -0.057063 0.021173654
-0.27323422 -0.08320894 0.039470684 -0.23659731 -0.16861793 -0.046218816 -0.019841656 -0.2175453
-0.10265378 -0.21308665 -0.17136775 0.014929891 -0.1963163 0.05335338 -0.27017656 -0.080625266
-0.16981114 -0.3173164 -0.063882545 0.005123418 -0.12335032 0.04358075 -0.12268016 -0.17575459
0.018301452 -0.13949841 0.004171605 -0.06094376 0.04489658 -0.13467418 0.0053066406 -0.20588002
0.009179404 -0.16194612 -0.29057047 0.12712517 -0.1998646 -0.1209708 -0.32559243 -0.05273808
0.17266347 -0.31135005 0.10658001 0.1706327 -0.13799223 -0.3145548 -0.2021348 -0.15359215
-0.20655859 0.05742406 -0.083741546 0.11502212 0.15071629 -0.19450705 -0.12956023 -0.0066833966
-0.16550596 -0.20922165 -0.46090266 -0.123059064 0.15186211 -0.013969594 -0.048923485 -0.13475819
-0.20998348 -0.26478642 -0.29077244 -0.1331633 0.007246131 -0.08569434 -0.3026247 0.22440508
0.31895158 0.088734195 -0.112802 -0.005648316 -0.15505022 -0.058593757 -0.15610765 -0.4471991
0.078998744 -0.13065453 -0.11410127 -0.1544864 -0.10787988 -0.2425839 0.01987192 -0.020661205
0.4011997 -0.022851283 -0.16498548 -0.24438177 -0.09123138 0.15726459 0.043077998 0.26126403
0.30718088 -0.11053675 -0.2895044 0.039619762 0.1138087 0.2494271 0.25603926 0.08860956
-0.14041753 -0.33059022 -0.1408254 0.112106405 0.26411763 0.21733414 -0.18870853 0.23709778
-0.15555082 -0.13116322 -0.07707208 0.09139463 0.09214934 0.067778945 0.015881691 0.103439175
0.10405808 0.089731626 0.018531058 -0.17339537 0.21308172 0.169619 0.11190596 0.29578882
0.10929247 0.18089636 0.20637004 0.09386484 -0.28804228 -0.27149218 0.014400757 -0.045403518
0.004329357 0.027671628 -0.14145438 0.07884013 -0.15315916 -0.023171976 -0.0053030443 -0.09776894
-0.036519963 0.011320357 -0.20249726 -0.170392 -0.2169681 -0.042870674 -0.30412528 -0.14664574
-0.070167735 -0.043107446 -0.016471956 -0.025817389 -0.15367204 -0.26688352 -0.09005345 -0.14404884
-0.028516814 -0.035046596 -0.16259752 -0.11099581 -0.21129481 -0.23737474 0.027733998 -0.15274435
-0.28930432 0.0060487874 -0.036177747 0.04493314 0.063473485 0.11902419 0.002767231 -0.13950104
-0.009445095 -0.09972233 -0.16355129 -0.18810028 -0.14328645 -0.14152822 -0.026781444 0.099094726
0.092985205 -0.16692062 0.20805821 -0.06586334 0.13911575 0.044773784 0.13419868 0.14187434

3.0.fn.0.bias f4 [98]
00000000: ca70 bb3e fa6b 9d3c bdc0 133e 2fbb f83b
00000010: 2460 cabe b416 d5be 9129 cdbe e437 51be
00000020: eed6 50bd 8a57 a03d bc9d 9dbd 605e 2cbe
00000030: 257e c63d beab fcbe 0b23 0bbd 8aa9 323f
00000040: 9ddb 593e 2146 843e ee27 d73e 2e82 993d
00000050: c3fa fcbd a6e5 aa3d 2fd6 d5bd 3f75 bf3e
00000060: 642a 7dbe c3e0 01bf fdf2 673e 89bb 3d3e
00000070: ce38 1fbe 5c2b 373e 9193 4f3e f011 cdbd
00000080: fd6b 273f 14dc 213e 948f 83bd b0d7 57bd
00000090: 999a f83e 9695 49be 1964 81be 7538 583e
000000a0: bd44 85be 1d4c e9bd ab18 223e 7e5c 6ebe
000000b0: 129f 03bf 5d27 fcbd 5012 80bb 7b09 edbe
000000c0: ebb5 2ebd f924 153e 3318 8b3d 8cb0 46be
000000d0: 4c11 313f 86f2 6e3d 1335 11be c1bd 6d3f
000000e0: 39d4 8e3e 4822 ec3e 46aa 46bb 5ffd e0bc
000000f0: 8a0f 8dbe 4bfe dbbe 151e 01bd a632 cbbe
00000100: 1cf9 94be e6f8 c1bd 9469 79bc 6938 f63c
00000110: 7e4b b43d 2910 ce3c df2f 3fbe 00f7 6ebe
00000120: 20f7 673d 4119 5abe 08a6 7e3e 9aa9 ab3e
00000130: f897 353f 2b21 7cbe b98e 86be a80a f33d
00000140: 1721 19be ce06 dc3e 8d38 d4be e02e 693e
00000150: 10d9 90be 5e86 9d3e 4c42 2f3e 0f63 bfbe
00000160: f243 51be b866 0e3e 59b1 3bbe d218 5dbe
00000170: 481f 50be ac94 f93d 2e68 673e c958 b23c
00000180: 346a bfbe 4587 92be
0.3660949 0.019216526 0.14428993 0.0075906734 -0.39526474 -0.41618884 -0.40070775 -0.20431477
-0.050986223 0.07829197 -0.07696101 -0.16832876 0.09692029 -0.4934978 -0.033968966 0.69789946
0.21275182 0.25834754 0.4202265 0.07495533 -0.123525165 0.08344583 -0.10441243 0.3739414
-0.24723202 -0.50733584 0.22651286 0.1852857 -0.15549013 0.17887634 0.20271136 -0.10013187
0.6539915 0.1580661 -0.0642387 -0.05269593 0.4855545 -0.19685969 -0.2527168 0.21115287
-0.26029006 -0.113914706 0.15829723 -0.2327747 -0.514146 -0.123121955 -0.003908433 -0.46296296
-0.04265396 0.14564885 0.06791725 -0.19403285 0.6916702 0.058336757 -0.14180402 0.92867666
0.27896288 0.46119905 -0.0030313893 -0.027464567 -0.27550918 -0.42967448 -0.03152283 -0.3968708
-0.29096305 -0.09471302 -0.015222926 0.030056195 0.088034615 0.02515419 -0.18670605 -0.2333641
0.05663216 -0.21298696 0.24868023 0.33527833 0.7093501 -0.24622028 -0.26280764 0.11867267
-0.14954029 0.42973942 -0.41449395 0.22771788 -0.28290606 0.30766577 0.17115134 -0.37380263
-0.20436075 0.13906372 -0.18329372 -0.215915 -0.20324433 0.1218656 0.22598335 0.021770852
-0.37385714 -0.28618827

3.0.fn.3.weight f4 [49, 98, 1]
00000000: 9e59 da3d 8435 093d 08fc 83be cb1b c7be
00000010: 6dc5 f13d dc72 13be 8b25 fbbe 9d82 f93d
00000020: 67e1 91be 2db8 6cbe dbde e93e 2a6c cabe
00000030: 4a3b e7be 041c cabe 570c 483d 3aed 303e
00000040: b4a5 0c3c 5d7f 1e3e 48d4 da3d 1c09 ffbe
00000050: f96e e0bb ce1a 98be c766 b23d 6488 89be
00000060: 3c1a 0d3d 4389 543d fd61 b13d 2294 a83d
00000070: 337d e13c e8a5 b6be 9b7d cebe 9588 bdbe
00000080: 63ef d2be bd55 89be 9096 973e 0116 313e
00000090: 4575 7dbe 41ad c63d 9fe2 3d3e ded1 92be
000000a0: 7491 d23d d878 18bf 02d5 8d3e 5422 60be
000000b0: c096 cd3e 0acb f13d fa31 6bbe 93cf ad3d
000000c0: e9f0 80be 4b2f b63e 3874 c6be cc92 af3e
000000d0: 1964 78be f805 893d c1e3 97be 2df9 e7be
000000e0: a31a 08be 1600 cdbe 96ae b63d abbf 803e
000000f0: eba6 683e 81f6 073e 418c 98be ef93 1f3e
00000100: 5812 9ebe f9fe a2be 0ef6 a4be 4a36 423e
00000110: 7a5b 043e 7dcc 31be 3f4f 9f3e a1cb d83d
00000120: f2bc 0e3d a7b4 323e d96d cbbe bdd3 153e
00000130: af57 a9be ec00 313f 20d7 653e bcf7 6f3e
00000140: d98b 923e fb3a 3bbe 15bf c83d ab55 293e
00000150: 4b05 883d a601 793d 59a4 753e 4b61 68be
00000160: 9657 c93e 6c4b aabe 6145 283e a85c 823d
00000170: 15b4 aebe ac02 9e3e 9522 3b3e 7e65 b0be
00000180: e9e1 293e 0053 083e eca7 da3d d574 393e
00000190: 7aa9 f1be 5d33 4ebe 90e4 043e 5dda 503d
000001a0: 26c6 19be 7a25 5f3e 6d26 c4be 1a5d 1ebe
000001b0: e0cc 0a3f 6042 3dbe cdd9 a3be 9170 a5be
000001c0: 7ae0 973d 7569 0f3d a6f2 e23c 3e0d a73d
000001d0: 67a5 a63d b37d 8bbe 94e5 ce3d e5a6 813d
000001e0: 3dd6 523e 5284 5bbe 0cf1 443e ca90 6e3e
000001f0: 546f 223a 6a11 273e b2fc d93d eaec c2be
00000200: 3b2b a2be 70f7 b4be 8f4f 64be 8285 8bbe
00000210: 6c77 9e3e 498c dfbb cfdb 8b3d ac83 223d
00000220: 4881 813e 8413 9ebe 66a0 493e 1775 74be
00000230: 2959 683e 9468 a2bd b758 143f 798c 653e
00000240: 559c 19be 5ce7 3c3f f404 56be 0ed5 943d
00000250: 4175 d7be 04de 2e3e f7a0 3dbd 82ea 073e
00000260: 537b 18be adcf f8be 26f4 7fbe e534 f2be
00000270: 3f8d 1c3e db64 9b3e 36d8 563e 73b1 6a3e
00000280: f8e7 e7bd 9f48 873e bae4 3abe 0b9d 45be
00000290: ebb8 18bd 106d e53e aab2 513e bf37 84be
000002a0: c6c7 cc3e 4da2 903e 81be 343e 0211 f23d
000002b0: 0f94 6ebe be3e cc3d 9667 ccbe 2d44 873f
000002c0: 6a7f 863e dd02 183e 0a52 793e 3921 96bd
000002d0: e66f 423e 19e6 333f 7fdf 933e 7a40 123e
000002e0: bbf7 0a3e c5d5 d7bc b5ee 1b3f d54b b2be
000002f0: f4d2 f83d ebd7 eb3d 2af9 97be 9d77 df3e
00000300: f179 4f3e 2a83 22bd 0762 683c 72d7 f63d
00000310: a3e4 203d b3fc 923b 437b a7be bae0 37be
00000320: aedd 0e3e 25aa bbbc f93b 32be 5f46 be3c
00000330: 9f2c 6fbe 0a88 6e3c e10f 1a3e cb16 9dbe
00000340: ee99 1fbe 1e8b d5be 56d6 b8bd b544 423e
00000350: a6c9 413d 6118 2b3e 6650 1d3e 4043 9abe
00000360: 8e3a ce3d 54f3 39be 536f 1f3e 8d81 83be
00000370: 39c5 7f3e 1a29 3f3e e1ad 253e 2fb8 be3e
00000380: d4e3 dd3d 03c0 bcbe 3596 00be 71a2 57be
00000390: 8258 a53b 0e7b 31be 7bdd ce3d bf04 af3c
000003a0: bb51 8c3d a160 f1bc c57b d53d 4ca9 f0be
000003b0: b8d7 3a3e b469 01be 891b 18bb 7cb2 e5bd
000003c0: ecbc 1b3f b515 e63d 487c 97be 7757 903e
000003d0: fc20 5cbd 8372 183e c62c 1cbe a656 083e
000003e0: 898c 0fbe e2fc 5c3b 9b63 85be 459d c6be
000003f0: 4de7 6dbe a1fc acbe 4e63 f13d 3dcd 9d3e
0.10661624 0.033498302 -0.25778222 -0.38888392 0.11805234 -0.14399284 -0.4905208 0.12183116
-0.2849228 -0.23117132 0.45677838 -0.39535648 -0.4516242 -0.394745 0.048839893 0.17277995
0.008584429 0.15478273 0.10685021 -0.49811637 -0.0068491665 -0.2970795 0.087110095 -0.2686187
0.034448847 0.051888715 0.08661268 0.08231379 0.02752552 -0.3567345 -0.40330204 -0.37018266
-0.41198263 -0.26823226 0.29607058 0.1729355 -0.24751766 0.09701014 0.1854348 -0.2867574
0.10281649 -0.5955939 0.27701575 -0.21888095 0.40154076 0.11806305 -0.22968283 0.08486857
-0.251838 0.35582957 -0.38760543 0.34291685 -0.24256934 0.066905916 -0.2966595 -0.45307294
-0.13291411 -0.40039128 0.089200184 0.2514623 0.22719924 0.13277628 -0.29794505 0.15583776
-0.3087337 -0.31835154 -0.32218975 0.18966022 0.1292552 -0.17363162 0.31115147 0.10585714
0.03484816 0.17451726 -0.39732245 0.14631553 -0.3307471 0.6914203 0.22445345 0.23434347
0.2862232 -0.18284218 0.09802071 0.16536586 0.066416346 0.060792588 0.23988475 -0.22693364
0.39324635 -0.33260667 0.16432716 0.06365329 -0.34121767 0.30861413 0.18274911 -0.34452432
0.16590084 0.13312912 0.1067656 0.18110974 -0.47199613 -0.20136781 0.12977815 0.050989497
-0.15016994 0.2179164 -0.38310567 -0.15465203 0.54218864 -0.18482351 -0.32002106 -0.32312444
0.074158624 0.03501268 0.027703594 0.081568226 0.08137017 -0.27244338 0.10102382 0.06330661
0.20589538 -0.21437195 0.19232577 0.2329742 0.0006196399 0.16315237 0.10643901 -0.38071376
-0.31673607 -0.3534503 -0.22295974 -0.27250296 0.30950487 -0.006822143 0.068290345 0.039676353
0.25293946 -0.30874264 0.19690093 -0.23872791 0.22690262 -0.07930103 0.5794787 0.22416867
-0.15001042 0.73790526 -0.20900327 0.072671995 -0.42081645 0.1707688 -0.046296086 0.13273051
-0.14890794 -0.48595944 -0.24995479 -0.4730598 0.15288256 0.30350384 0.20980915 0.22919254
-0.113235414 0.26422593 -0.18251315 -0.19298188 -0.037285727 0.4480977 0.20478311 -0.2582378
0.39996165 0.28248826 0.17650796 0.1181965 -0.23298667 0.099729046 -0.3992278 1.0567681
0.26269084 0.14844842 0.24347702 -0.073305555 0.18987998 0.70272976 0.2888145 0.14282408
0.13571064 -0.02634705 0.60911113 -0.3482348 0.12149611 0.115157925 -0.29682285 0.43645945
0.2026136 -0.03967587 0.014183528 0.12052812 0.039280545 0.0044856905 -0.3271123 -0.1795682
0.13951752 -0.02290828 -0.1740569 0.023226915 -0.23356865 0.014558801 0.1504512 -0.30681452
-0.15586063 -0.417077 -0.09025256 0.18971522 0.047311448 0.16708519 0.15362701 -0.30129433
0.10069762 -0.18159229 0.1556981 -0.25684777 0.24977578 0.18668023 0.16179611 0.37249896
0.108344704 -0.36865243 -0.125573 -0.2105806 0.0050459513 -0.17332098 0.10100838 0.021364568
0.06851526 -0.029465022 0.10423998 -0.47004163 0.18246353 -0.12637979 -0.0023209772 -0.11215684
0.60835147 0.11234609 -0.29587007 0.2819173 -0.053742394 0.14887433 -0.15251455 0.13314304
-0.14018454 0.0033720066 -0.26052555 -0.38791862 -0.23232765 -0.3378649 0.11786519 0.30820647

3.0.fn.3.bias f4 [49]
00000000: 8032 663d 5409 e6bc ac8a 923d bdc4 2dbd
00000010: c0bb aa3c 2f18 a93d 3774 50bd baff 373d
00000020: ea4e acbd d026 c53d 1198 96bd 3f09 6a3d
00000030: 6e33 fb3c 9e36 433d 4019 4d3d 0505 85bd
00000040: 95a1 35bd 84a0 843d dab5 953d fd2d 003d
00000050: 2330 aa3d 2eed 4a3b 565e b7bd 9a0e 793c
00000060: e386 c8bd 7cfd 023d f582 5e3d 06f9 98bc
00000070: 6196 a13d 620e a53c 0937 bd3d 0f7a ab3d
00000080: 5288 91bd 77c3 cbbd 1bcb 5d3d d519 b13d
00000090: 877c f7bc 50ee 73bd 50d0 7a3b d009 4ebb
000000a0: 7c39 41bc c115 fe3c 8204 95bd be13 88bd
000000b0: 2f1a e53c b81a c2bd 0b16 32bd 3ce4 aa3d
000000c0: 90e6 9ebd
0.056200504 -0.02808062 0.07155356 -0.042423952 0.02084148 0.08256566 -0.05089208 0.044921614
-0.08413489 0.096265435 -0.07353223 0.057137724 0.030664172 0.04765951 0.05007291 -0.06495098
-0.04434355 0.064759284 0.07310076 0.031293858 0.083099626 0.0030964124 -0.0895354 0.015201235
-0.097913526 0.031980023 0.05432411 -0.018673431 0.078900106 0.02014846 0.09239013 0.0837289
-0.07106079 -0.09949391 0.054148775 0.08647505 -0.030210746 -0.059553444 0.0038271137 -0.0031438954
-0.0117934905 0.031016232 -0.072762504 -0.066443905 0.027966587 -0.094777524 -0.043478053 0.083443135
-0.0775882

3.0.norm.weight f4 [7]
00000000: 541f 873f 03a1 e03f c11e da3f 753d ab3f
00000010: cef6 c43f ca59 843f bdd4 913f
1.0556436 1.7549137 1.7040635 1.337813 1.5387819 1.0339901 1.1393048

3.0.norm.bias f4 [7]
00000000: 9891 3abe 5f51 7ebe 551f eebd b475 a53d
00000010: e183 153d c21f 7d3d edd8 2c3f
-0.18219602 -0.24835728 -0.1162707 0.08079091 0.036502723 0.061797865 0.675185

3.1.fn.0.weight f4 [3, 7]
00000000: fb51 213f a378 0ebf 0f9b f83d ded6 163f
00000010: f4cd 45be d43a 65bf 5e76 953d a51e be3e
00000020: 8476 e2be 428d edbe e0f5 2d3f 5d02 193e
00000030: 8a04 633e 98c6 07bf f30b 193f 82ab 10be
00000040: cb45 1a3f 9538 57be 089a 84bf 584e 69bd
00000050: 3918 05bf
0.6301572 -0.5565283 0.1213895 0.5892161 -0.19316846 -0.8954289 0.072979674 0.37132755
-0.44231045 -0.46396834 0.679533 0.14942308 0.221697 -0.53037405 0.5978386 -0.14127925
0.60262746 -0.21017678 -1.0359507 -0.05695948 -0.51990086

3.1.fn.0.bias f4 [3]
00000000: 89d2 993e 2805 06be e8bd 113f
0.30043438 -0.13087904 0.569304

3.1.fn.3.weight f4 [7, 3]
00000000: b0b3 1a3f c326 82bf 20e4 543f ec19 3b3f
00000010: 43c4 81be eb54 533e 48ed 443d 87d8 d6be
00000020: 8b66 90bf 9058 53be 9ea2 0e3f 2757 83be
00000030: 0a0d 6abf 9932 13bf b77e d6be a5d8 713e
00000040: 709f 763e b3e2 8dbc 340d 4a3e e720 3c3f
00000050: 42f1 a03e
0.6043043 -1.0168079 0.8316059 0.7308643 -0.25345048 0.20637862 0.04807785 -0.41962072
-1.1281294 -0.20639253 0.55716884 -0.2565243 -0.91426146 -0.5749908 -0.4189355 0.236178
0.24084258 -0.017320013 0.19731599 0.73487705 0.31434065

3.1.fn.3.bias f4 [7]
00000000: 6cca fabe dd30 1b3d 42f1 693e 9ce9 0ebe
00000010: 4213 f03d 1d27 42bf bef1 ecbd
-0.4898256 0.037888397 0.22845939 -0.13956302 0.11722423 -0.7584093 -0.11569546

3.1.norm.weight f4 [7]
00000000: ede4 ad3f a87d bb3f 9542 a33f 5f8f d63f
00000010: 0509 dc3f 133d d53f 2ff6 ac3f
1.3585488 1.4647722 1.2754694 1.6762503 1.7190253 1.6659263 1.3512629

3.1.norm.bias f4 [7]
00000000: 0e6c 853e f8d1 47be 8a9a 85bd 2a81 733d
00000010: 655f 58be 85fc b83d c380 a2be
0.26059002 -0.1951369 -0.065236166 0.059449352 -0.2113014 0.09032539 -0.31738862

4.weight f4 [7]
00000000: a4c7 3540 5077 4040 48ae 4a40 09e3 3540
00000010: 7309 1c40 3b91 3e40 d4e7 5940
2.84031 3.0072823 3.1668873 2.8419821 2.4380767 2.9776142 3.4047747

4.bias f4 [7]
00000000: ddca a93e 9c6d 2a3e 1b0e 843e aeb8 9c3e
00000010: dd03 c3bb ea1f 4f3e e949 e93e
0.33162585 0.16643375 0.25792012 0.3060965 -0.0059513883 0.20227018 0.455642

6.weight f4 [15, 7]
00000000: 2017 f03e 06d2 973f f38c 7d3d f268 ffbd
00000010: 5577 30bf 774e 1bbf 1a15 0f3f 6f61 963f
00000020: 6de3 9abe b9b5 91bf 560a 493f 3b67 fabe
00000030: f838 6cbe 182b fc3e 791b 0cbf aa14 75bf
00000040: 9ffd 80bf df82 f6be 3355 673f 653e f03d
00000050: d851 603f c4f7 4dbf 819b 9e3e 7401 863e
00000060: 36d0 f63e 7377 3b3f 92f8 91bf 1f17 5f3f
00000070: 37ef 563f fae1 14be f96e 943f 33eb 99be
00000080: 1f02 0bbf 36ab 3dbf 80a2 32bf 8175 e8be
00000090: 67c0 0abf ca67 f53e 3248 943f 0704 cf3e
000000a0: 7936 9bbf 6e7f 45be a637 40bf 102e 113e
000000b0: 39ac 6d3f 0b64 ddbf 5fa4 d9be b64c 5d3f
000000c0: 3747 063f a879 e6bd 0854 903f e254 17bf
000000d0: 1de1 b2bf 3bc3 003f 3def c33e 1ad5 a6bf
000000e0: d496 133d bc6f 87bf 6012 3fbd db95 423f
000000f0: 4dcd bc3e 2b45 493f fce2 47bf 4b80 c8be
00000100: e923 96bf eb6b 663f 51ab cdbe 79cc e2bc
00000110: 3e4c d3ba 9487 3e3f 52ea 02bf 0bcc 9f3f
00000120: a378 7abf da81 b7be 1032 f83d c35c 07bf
00000130: fec3 353f 382c 433f ef63 333f 573d b2be
00000140: 1880 69be 3fd3 68be c3e5 333f e4e7 c4bf
00000150: 480b dc3e b774 ec3d 7c60 a93f 94ed ce3d
00000160: 6fc4 b23f b2de dabc c03c a4bf a3ad 9ebf
00000170: 8ff4 f23e ed80 22bf 2a2f 4c3f acff 173f
00000180: 685e 0f3f 9f96 47bf 03d3 5e3f 577c 94bd
00000190: 7b7c 4ebe 693e 5b3e 42ed 83bf c92e 953f
000001a0: 414f 2bbd
0.46892643 1.1860969 0.061901998 -0.124711886 -0.68932086 -0.606666 0.55891573 1.1748484
-0.30251637 -1.1383582 0.78531396 -0.48906884 -0.23068607 0.49251628 -0.5472942 -0.95734656
-1.0077399 -0.48146722 0.9036438 0.11730651 0.87624884 -0.80456185 0.30978015 0.26172984
0.48205727 0.7322914 -1.1403983 0.87144655 0.8395876 -0.14539328 1.1596366 -0.30062255
-0.5430011 -0.7408937 -0.69779205 -0.45402148 -0.5419983 0.47930747 1.1584532 0.4043276
-1.2125999 -0.19286892 -0.7508491 0.14177728 0.92840916 -1.7296156 -0.42508218 0.86445177
0.52452415 -0.11253673 1.1275644 -0.59113896 -1.3974949 0.502979 0.38268462 -1.3033783
0.036032513 -1.0580974 -0.046648383 0.7600991 0.36875382 0.78621167 -0.78080726 -0.3916038
-1.1729709 0.9000842 -0.40169767 -0.02768539 -0.0016120744 0.74425626 -0.51138794 1.2484144
-0.9784033 -0.35841256 0.12118924 -0.5287592 0.71002185 0.7623935 0.7007436 -0.34812424
-0.2280277 -0.22736834 0.70272464 -1.5383267 0.42977357 0.11545699 1.323257 0.10103908
1.3966197 -0.026717518 -1.283104 -1.239674 0.47452208 -0.63477975 0.79759467 0.593745
0.5600343 -0.77964205 0.8704073 -0.072502784 -0.20164673 0.21410526 -1.030678 1.1654903
-0.04182363

6.bias f4 [15]
00000000: f2bb 213f 3a61 05bf 250f 9fbe d21c 1d3f
00000010: 44fa c4be eaa5 cdbe e4e2 2d3e ab86 9bbd
00000020: db35 d43e 6858 d7be 9128 c3be 9200 38bf
00000030: 8776 0e3f 6fa9 75bf 230c 463f
0.63177407 -0.5210148 -0.31066242 0.613721 -0.38472188 -0.40165645 0.16981083 -0.07594045
0.41447338 -0.42059636 -0.38116887 -0.7187587 0.5564961 -0.9596166 0.7736227
