mlp_mixer_vegetables_28.pth (torch, 219356 bytes, 30 tensors)

1.weight f4 [8, 2352]
00000000: 1487 2cbd 3e28 213b 3f51 c9bc e93e 63bd
00000010: a94b d6bc d7a8 6ebd 21f4 b0bd fc49 3abd
00000020: d884 22bd cfde a7bc f556 05bc 19a6 28bd
00000030: b724 01bd 4d89 143c a82b 83bc 9221 b1bc
00000040: 491c 633c ef5f 463c a809 06bc 950c cc3b
00000050: eda7 fbbc 15fb 183b 1e85 0e3c 38be 733c
00000060: 4187 8cbc 0417 afbc 34f1 2cbd 42f1 2fbc
00000070: 33e6 793c bfbc 1bbc eb2c b6bc 6085 ae3c
00000080: 9abd 42bb fa47 01bc b841 193c 6214 d5bb
00000090: 8d93 623b 82c6 a1ba 4d45 eabc a975 1f3c
000000a0: 4a0d 06bb d254 86bc 9a2a b0bc 3547 9b3c
000000b0: c2af bcbb ffc0 1ebd 5745 9f3c 39ae a23a
000000c0: 9a88 6fbc 4dc0 ac3c a0f6 03bc f91a 13bd
000000d0: 2ec8 6f3c 0f8f 4dba d7e3 13bd 3b11 d63c
000000e0: fb7d 85bc e6ca f0bc 4809 ee3c b523 d43c
000000f0: 9a68 2bbd d0f5 103b 13c9 32bd bfb0 0cbd
00000100: b2f4 8b3c d563 293c 8da6 9cbc adec 923c
00000110: 2d74 a33c 7ce1 10bd 34db 563c 178e 2fbc
00000120: b956 ffbb f638 a03c b9b9 303d cc30 64bc
00000130: a68d a33c a02b fdbc 1bb4 05bd b266 93bc
00000140: 9e6e 4cbd 8c8e 12bc cd39 073d 996c 08bd
00000150: eb8b c3bc ce02 7abc 54ad 06bc b1af ddbc
00000160: 7faa 17bc 816c d9bc a267 42bd 6b5a 82bc
00000170: e73e 80bb 996b c8bc 40c2 85bc 89ea 4f3a
00000180: 7d68 a7bc 87cc b93c 6074 a43c 198b 30bc
00000190: f67e e6bb be65 253c 9799 943b 8a87 743c
000001a0: 7013 2a3c cf4e 2a3a 6968 54bb 00ec 193c
000001b0: a753 30bc 8aad de3b aa3a b0bc 61d8 21bc
000001c0: b306 723a c0f2 d63b be8b 8f3c 6a53 853b
000001d0: 69a5 bc3c 2b9d 993c 74c2 873c 8307 f53b
000001e0: 7b40 87bc 5b4d e93c c335 bd3c d767 9ebb
000001f0: 36b5 01bc 6cd8 0fbb 9086 1bbd c48c aebb
00000200: 9ffd 88bc 20e2 abbc 15ea 90bc 1374 43bc
00000210: 0c44 d8bc 971a c5bb 637d 85bc 3044 5ebd
00000220: 07f5 02bd 2dbb cebc 82e9 72bc b2b9 87bb
00000230: d772 66bc ba55 09bd 4466 a33c 94d2 93bc
00000240: 855f 3fbc 5dc0 4ebc 567b 3abc 6ab4 6039
00000250: bab1 4c3c bd03 aa3c 846d 82bc 499e b33b
00000260: 493a 5ebb cf11 1bbb c32b 1a3b c222 1fbb
00000270: 9977 8dbc 17be 853c 5cb3 fbb7 e47b 24bc
00000280: 5eec 1abb 23b6 9a3c a9ed bbbc cd0a 99bb
00000290: 7c65 13bd 1df1 bfbc 37a1 de3c 7fa0 0cbd
000002a0: 811c f2bc c147 81bc 93e6 873c 46a2 b8bc
000002b0: 18cc a63c c18d 553c f75c 98bc c928 a9bc
000002c0: 8ec0 0abd f58d 5abd 15d4 03bd d0e7 edbc
000002d0: 6ade 5ebd c045 50bc f253 61bc 72f7 32bd
000002e0: 1b0a 1b3b dbd3 40bc f68f 1abd 1354 b0bc
000002f0: fad3 f8bb b419 e1bb 4011 2ebc 65d9 4abc
00000300: 8218 d3bc 5b69 8abb 865f 333c 847b 42bb
00000310: 2f8c 563c e7fd a6bb 26c3 eb3b aa30 84ba
00000320: 0b24 1abc baad c73b affb f83c 7999 c1bc
00000330: 3f55 0bbc 3cb2 c8bb d003 d5bc 2654 babc
00000340: f088 dbbc f916 f2bc 4714 8bbc df2e ca3b
00000350: c5b9 07bb b9b7 0cbd 5c81 6b3c 79dd 7a3c
00000360: 7686 2ebd ce67 92ba c5fc 86bb f4e1 34bd
00000370: 643a 2ebb 5015 d6bc 74e4 1f3c 22fa 273d
00000380: d7ef a33b 6743 61bc d379 703b ff49 19bc
00000390: a8f8 b8bc ef20 a93c 36ac 9bbc 2a46 56bc
000003a0: f90a a93c dfdf ce3b 57f0 05bd ee63 f538
000003b0: cb9c 63bc 4ffc acbc d2c8 7b3c 24b6 193d
000003c0: a425 bebb df92 6a3c 5f41 853b f068 cebc
000003d0: 8e01 6e3a eeb4 6aba 7f9b 443c 362b 033d
000003e0: 2088 7fbc 6743 d43b 6799 073d 856d 58ba
000003f0: 3636 bb3a 9b9a eabb f198 94bc 7aa2 a3bc
-0.042121008 0.0024590637 -0.024574874 -0.055479918 -0.026159124 -0.058266487 -0.08640314 -0.045480713
-0.03967747 -0.020491986 -0.008138408 -0.041174028 -0.031529155 0.009065938 -0.016012028 -0.021622453
0.013861724 0.012107833 -0.008181013 0.006227086 -0.030719722 0.0023343016 0.00869873 0.014876895
-0.017154338 -0.02137328 -0.042222217 -0.010738673 0.015252638 -0.00950545 -0.022238215 0.021303833
-0.0029715062 -0.007890696 0.0093540475 -0.006502674 0.003457281 -0.0012342485 -0.028597498 0.009732642
-0.0020454698 -0.016397867 -0.021504689 0.018954853 -0.0057582567 -0.038758274 0.019442244 0.0012411542
-0.014619971 0.02108779 -0.008054405 -0.035914395 0.014635129 -0.0007841447 -0.036105957 0.026131263
-0.016295424 -0.029393625 0.02905716 0.025895933 -0.041847803 0.0022119172 -0.04364879 -0.034348246
0.017084453 0.010338743 -0.019122386 0.017935121 0.019952858 -0.03537129 0.013113786 -0.010715029
-0.0077923206 0.019558411 0.04314587 -0.01392765 0.019965004 -0.030904591 -0.032642465 -0.017993305
-0.04991018 -0.008945119 0.033014107 -0.03330669 -0.023870429 -0.015259458 -0.008220036 -0.027061315
-0.009256958 -0.026540997 -0.047462113 -0.015912255 -0.0039137485 -0.024465369 -0.016327977 0.0007931372
-0.020435566 0.022680534 0.020075023 -0.010775351 -0.007034178 0.010095058 0.004534911 0.014924893
0.010380611 0.0006496729 -0.0032410866 0.009394646 -0.010762132 0.00679559 -0.021512348 -0.009878249
0.00092325656 0.0065597 0.017522689 0.0040687816 0.023028092 0.018751701 0.016572215 0.007477702
-0.016510239 0.028479269 0.023096925 -0.004834156 -0.007916739 -0.0021949066 -0.037970126 -0.005326839
-0.016722498 -0.020981848 -0.017689744 -0.01192953 -0.026399635 -0.0060151326 -0.01629514 -0.054264247
-0.031971958 -0.025235737 -0.01482618 -0.0041420097 -0.014065466 -0.03352902 0.019946225 -0.018044747
-0.0116804885 -0.012619105 -0.011381945 0.00021429514 0.012493545 0.020753736 -0.015921362 0.0054815155
-0.0033909252 -0.0023661738 0.002352462 -0.0024282192 -0.017268943 0.016325993 -3.0005052e-05 -0.010039303
-0.002363942 0.018885678 -0.022940474 -0.004670477 -0.035985455 -0.023430401 0.027176483 -0.03433275
-0.029554607 -0.015781285 0.016589439 -0.022538316 0.020360991 0.013034285 -0.018599017 -0.02064933
-0.03387504 -0.053358037 -0.03218468 -0.0290412 -0.05441133 -0.012711942 -0.013752924 -0.043693013
0.0023657146 -0.01176926 -0.037734948 -0.021524465 -0.007593629 -0.006869519 -0.01062423 -0.012380932
-0.025768522 -0.004223985 0.0109480675 -0.0029675672 0.013094946 -0.0050961855 0.0071948944 -0.0010085304
-0.009408007 0.006093708 0.03039345 -0.023632752 -0.008504211 -0.006124763 -0.026002795 -0.022745203
-0.026798695 -0.02955197 -0.016977442 0.0061701383 -0.0020710093 -0.0343549 0.014374103 0.015311592
-0.0426087 -0.0011169852 -0.004119488 -0.0441608 -0.0026585096 -0.02613321 0.009759057 0.04101003
0.0050029564 -0.01374898 0.0036693707 -0.009356021 -0.022579506 0.020645587 -0.019003015 -0.013078252
0.020635115 0.0063133086 -0.03269991 0.00011701124 -0.013892363 -0.021116404 0.0153677035 0.03752722
-0.005802827 0.014317243 0.0040666307 -0.025196522 0.0009079211 -0.0008953352 0.011999964 0.03202363
-0.01559642 0.0064777615 0.03310528 -0.0008256066 0.0014283124 -0.0071595437 -0.018139334 -0.019974936

1.bias f4 [8]
00000000: 7f22 cabd 12a3 8dbe b50c 3e3e 026d ce3e
00000010: 3865 de3d 46a4 debe 3daa 8abe 46d6 cc3e
-0.09869861 -0.27663475 0.18559535 0.4031754 0.1085915 -0.43484706 -0.27083007 0.40007228

2.0.fn.0.weight f4 [128, 64, 1]
00000000: f9ac 323e fd0b 44be 3cc6 99bd 4055 09be
00000010: 1e07 75bd dc0f dcbc 5bec fa3d cf68 893d
00000020: 85cd 09be 6a88 c53d 667b 67bd 1a69 51be
00000030: 4b18 953d c924 f53d 0aad 79bd 4245 97bc
00000040: 241d 11be 559a 83bd 08f4 ba3d a0b7 acbe
00000050: a045 2ebe 0bf5 0fbe 29db 44bd 5f10 74bd
00000060: 9d6d 69be 78d2 d9bd 1cb4 f93d 5f02 cc3c
00000070: 1b1a 0abe 21c4 a0be cb77 c7bd e456 133e
00000080: 36ec d43c d72a 3a3d 3509 383d 7377 8a3c
00000090: 5d9b 26be e7c4 9fbe 2756 4bbb d601 143e
000000a0: 263d 17be 6da3 16be 1d32 de3d 16c0 163e
000000b0: 3feb 383e 7cb0 c9bc 0f19 02be a6d7 843e
000000c0: 62ed 103b 9030 f1bd 7c7a 133e 1c0d d03d
000000d0: 2b3f 133d 3323 fb3c 98bf 1c3d 8fe9 823d
000000e0: f24b c7bd 3fa7 343e 6d6c 3cbe 0f1f 1c3e
000000f0: dddd b23d 840d 2e3d f3e4 f43d 5699 6e3e
00000100: 4961 c03c 6dd5 203e 3da1 553e 5673 043e
00000110: 465e 233e cb7a aa3b e6ab 31bd c8ac fb3d
00000120: d3c4 8b3e 7c00 1e3e a34c 983d c5e0 203c
00000130: 4537 7cbb 6a87 48be 90b4 11be b7b8 dabc
00000140: 30a1 053d 092d 933e cc55 8f3c 7b56 3abe
00000150: 931c 48be ff4d c3bd 59bd 46bc 96b3 1c3d
00000160: f9cb 983d 9597 31bd 142f f6bd 699b 2e3e
00000170: f5fc cd3d aacc 8ebe f039 28be fa37 f0bd
00000180: 380b 583e 0ffc c9bd 5904 cebd 9eba 143d
00000190: 8c4d 17be 99e9 bcbd 286a 4cbe 131d 0b3e
000001a0: 31e8 a23d bf81 153e be89 eabc 124a 43bb
000001b0: e6fe adbc b527 49be 7123 333b 05dc 6a3e
000001c0: ba56 b13d 9ca9 aa3b 5168 d2bd 786b 84be
000001d0: 9775 b8be 3886 3fbd fb19 05be 7ce5 1b3e
000001e0: 1e9b 27bd f039 a83c dc12 84bd a1c4 ecbd
000001f0: 6c3c 74bd 6a5f c03d 1bb1 61bd 2dda 863e
00000200: 7537 123e 0b76 663d 015c 613d 549f 32bb
00000210: afd6 9fbd 9394 cb3d 7153 5f3e 8475 10be
00000220: 9a4a d03d cd1e 9fbc b1d0 8fbd 11fe 163d
00000230: 76d1 603d 134e 08bd 29e0 e73d 9bad a8bd
00000240: d8f0 e53c f788 b8bd ba98 8fbd ad95 1dbe
00000250: f204 e1bd 1622 22bd 7a4a 413d 2d7c ed3c
00000260: 84c2 27bd 9e31 f5bd 2e2c 153a 6a26 833e
00000270: ce7e 51bd 2925 5a3e 9854 04bc 787c 31be
00000280: bc8b 933d da3f edbd d024 1cbd 71d1 0c3e
00000290: e2b7 f9bd 9ee1 043d e3cc 02be d7e4 73ba
000002a0: bd70 b0bd 8eaf 00be 93df 4ebd d725 e33c
000002b0: 943d d1bd 4fd9 a3bc f5c9 2e3e f836 4d3d
000002c0: 7a52 f6bd 3d96 12be 66c2 b43d d777 18be
000002d0: 74d8 da3d 1c92 553c 856f 493e f507 39be
000002e0: 73c0 22be 0cb7 2cbd 2b4d 73bc 1012 6e3d
000002f0: 861e 033e 56f3 e03c 6691 333e cd05 4bbe
00000300: 194e d03c 9cbd f3b8 9796 85bc 7b9a f2bd
00000310: 9ca8 0ebc a060 d4bd 5118 753e 095f 9f3e
00000320: b4df eb3d 0a31 193e 5d1a 2b3e 9946 a4bc
00000330: fafa 01bd 873a 54be 5598 80bd d58d e83d
00000340: c9c5 3c3b 84d7 9abd 0137 133e 371b a13c
00000350: 4370 14bd 962d 8abd 52c0 943d 1bc4 82bd
00000360: e9b9 30bc 29af 0dbe 87ee d83d 3fca 303e
00000370: 64f7 a53d d853 d03d b6b3 943d 35f4 40be
00000380: dc8a e2bd 7d61 c53d 1efa 97bc f7a0 e83c
00000390: be10 07bd 3fb8 a73d cc49 ac3d 0c42 17be
000003a0: b497 763d 7fb2 003e 28c5 be3d 25cd 2dbe
000003b0: a120 33be 7fa8 493e 377b 6bbd e877 4cbe
000003c0: f94e 7b3b f271 6ebd f18e 073e 547e 543c
000003d0: 5157 c13d de36 6e3d 0b60 a63d b4bd d2ba
000003e0: cf26 193e 1d9d 66bd 5560 7d3d 379c 85bd
000003f0: 47d1 bb3c 422a 20be fcaf b53d e34b 903e
0.17448796 -0.19145198 -0.07508513 -0.13411427 -0.05982124 -0.026863031 0.122521125 0.06709444
-0.13457306 0.096451595 -0.056514166 -0.2045025 0.07280024 0.11969907 -0.06095604 -0.018465642
-0.14171273 -0.06425921 0.091285765 -0.33733845 -0.17018747 -0.1405832 -0.04806057 -0.059585925
-0.2279572 -0.10635847 0.12192556 0.024903474 -0.13486521 -0.31399634 -0.097396456 0.14388615
0.02599154 0.04545101 0.044930656 0.016902661 -0.16270204 -0.31204912 -0.0031026693 0.14453825
-0.1476942 -0.1471078 0.10849402 0.14721712 0.1805849 -0.024620287 -0.12704872 0.25945777
0.0022114147 -0.11776841 0.14402193 0.101587504 0.035948914 0.030656433 0.038268656 0.06392204
-0.09731282 0.17641924 -0.18400736 0.15246223 0.08733723 0.04249336 0.11957731 0.2330068
0.02348389 0.15706415 0.20862289 0.12934622 0.15953931 0.0052026263 -0.043376826 0.12288815
0.27298602 0.15429872 0.07436492 0.009819214 -0.0038485092 -0.19582906 -0.14229035 -0.026699407
0.032624424 0.28745297 0.017496966 -0.18197052 -0.1954215 -0.09536361 -0.012130105 0.038257204
0.0746078 -0.04335745 -0.12020698 0.17051472 0.10058013 -0.2789052 -0.16428351 -0.11729427
0.2109803 -0.098625295 -0.10059423 0.036310785 -0.14775676 -0.09224243 -0.1996237 0.1358531
0.07954443 0.14600275 -0.028630134 -0.0029798788 -0.02123971 -0.19644053 0.0027334357 0.22935493
0.0865912 0.0052082073 -0.10273803 -0.25863242 -0.36027214 -0.04675886 -0.12998192 0.1522426
-0.040919416 0.02053544 -0.0644891 -0.115609415 -0.059627935 0.09393199 -0.05510054 0.2633833
0.14278968 0.05626492 0.055019382 -0.0027255611 -0.078046195 0.09940448 0.21809174 -0.14107329
0.10170479 -0.019423867 -0.070222266 0.03686339 0.054887258 -0.033277582 0.11322052 -0.082362376
0.028068945 -0.09010499 -0.07011552 -0.15389128 -0.10987271 -0.039583288 0.047190167 0.028989876
-0.04095699 -0.11972354 0.0005690482 0.25615245 -0.05114632 0.21303238 -0.008076809 -0.17332637
0.072043866 -0.11584444 -0.038121045 0.1375177 -0.12193276 0.032441728 -0.1277347 -0.0009303814
-0.08615253 -0.12566969 -0.050506186 0.027728004 -0.10216823 -0.020001082 0.17069228 0.05010125
-0.1202745 -0.14315124 0.08826141 -0.14889465 0.106858164 0.0130353235 0.19671448 -0.18069442
-0.15893726 -0.042166755 -0.014849941 0.058122694 0.12804613 0.027459782 0.17535934 -0.19826432
0.025427865 -0.000116224604 -0.016307158 -0.11845871 -0.008707192 -0.10369992 0.23935057 0.31127194
0.11517277 0.14960113 0.16709276 -0.020053195 -0.03173349 -0.20725451 -0.06279055 0.11355177
0.0028804413 -0.075606376 0.14376451 0.019666297 -0.036239874 -0.06746976 0.07263245 -0.063850604
-0.010786512 -0.1383635 0.105923705 0.17264651 0.08103827 0.10172242 0.0726084 -0.18843158
-0.110616416 0.09637735 -0.018551882 0.028397067 -0.03297495 0.08189439 0.08412513 -0.14771289
0.06020327 0.12568091 0.09314948 -0.16972788 -0.17492916 0.19693182 -0.057490554 -0.19967616
0.0038346632 -0.058214135 0.13238122 0.012969572 0.094404824 0.058157794 0.081237875 -0.0016078264
0.1495621 -0.05630218 0.061859448 -0.06523936 0.02292694 -0.1564112 0.08871457 0.28182897

2.0.fn.0.bias f4 [128]
00000000: 7d35 29bd b683 1e3d 4b7f a5bd 15cf 9d3d
00000010: 4ca0 6dbd 28cf 313e ea26 2dbe c02c 1c3c
00000020: 372f 2b3e 7b6e 78be 2e02 19be c7df 213e
00000030: 61a2 bbba 9052 2dbd e5a9 1e3d 3814 f13d
00000040: 3e9e 1f3e 4d75 f53e 6f4d 383e 1517 a8bd
00000050: 71ba 043e fc0e 4f3e f9cc a23e 2292 703d
00000060: 78e1 23be cc9d b5bd 54d3 c13c b1da fb3c
00000070: 97b2 7a3d 6245 3dbc 78bf a13e 5965 fc3c
00000080: 48c3 13be eaa2 35be 95c8 913e 25e3 51be
00000090: bb20 0b3e 65c4 153e fea9 6cbd 6cf2 dc3e
000000a0: db2a 4bbe 0fad edbd fe58 8f3d 95a2 213e
000000b0: 3fec 2e3e df93 b5bd d97e f8bd 3c50 ea3d
000000c0: 579b e0bd e4dc 873c 109e bb3d 9046 843d
000000d0: ef26 20be 4ee7 26bd 9175 fdbe d69e 183e
000000e0: 0b5c b7be d888 be3e 16ea 6dbe 0f85 5e3e
000000f0: 20c0 383d 2abe 8b3d 0285 b3be 18f6 a23d
00000100: fdbd fbbc 9747 86be 836d 0c3d 5bce d1bd
00000110: cae3 2f3e a304 93be 84f4 71be 2d5f 953e
00000120: c640 f83d dd06 483e f916 adbd e03a ad3b
00000130: d737 4a3e 48ad b4bc 75d5 5ebe 05e5 d03d
00000140: 8228 2f3e f81e 893d f343 00be 034c 9dbe
00000150: 011d a3be 73b7 a1bd 26ad da3d 32da a7bb
00000160: 5344 593d d897 75be 8744 203e d0a6 223e
00000170: c71f 26be e491 b93e 98ff 913e 19fd 8abc
00000180: e502 233e fbb8 80bd b226 90be 4ea6 313d
00000190: ba1b fb3e 0933 203e ae98 793d 3a4f 0d3f
000001a0: f3e7 82be 9b3f 0abe 787a 5d3e 93ba 2abe
000001b0: 6e17 c13b 96d6 a93c 2370 833d 3aab 063d
000001c0: 9ad5 773d d17c 04be 8379 8d3c 3048 a83d
000001d0: 46a0 513e e399 2abe a09c 243e cceb 223e
000001e0: cea3 8c3e 2215 0dbd 0ebc f7bb 4db3 e6bb
000001f0: 616f 33be 28ab 3d3e ad90 54be b27a aa3d
-0.041310776 0.038699828 -0.0808092 0.077055134 -0.0580142 0.1736418 -0.16909376 0.009532154
0.1671723 -0.24260895 -0.14942238 0.1580802 -0.001431536 -0.042315066 0.038736243 0.117714345
0.15587708 0.47941056 0.17998289 -0.082075275 0.12961747 0.2022056 0.31797007 0.058733113
-0.16003978 -0.08867988 0.02366034 0.030743929 0.061205473 -0.011552187 0.31591392 0.030810045
-0.14429963 -0.17737928 0.28473344 -0.20496805 0.13586704 0.146257 -0.057779305 0.43153703
-0.19840567 -0.11605274 0.06999396 0.15784676 0.17082308 -0.08866095 -0.12133569 0.11441085
-0.10967129 0.016584821 0.091610074 0.06458771 -0.15639852 -0.040747933 -0.4950376 0.14904341
-0.3581241 0.37213778 -0.23233828 0.21730445 0.0451051 0.0682338 -0.35062414 0.07957095
-0.030730242 -0.26226494 0.034284126 -0.10244437 0.17176738 -0.28714475 -0.23628432 0.29174176
0.121217296 0.19533868 -0.08451647 0.0052865595 0.19747864 -0.022055283 -0.21761115 0.10199932
0.17105296 0.0669536 -0.1252592 -0.30722055 -0.31858066 -0.07896318 0.10677557 -0.0051224465
0.053043675 -0.23983705 0.15651141 0.15883946 -0.1622306 0.36244118 0.28515315 -0.01696639
0.15919073 -0.06285282 -0.28154522 0.04337149 0.4904459 0.15644468 0.060936622 0.55199015
-0.25567588 -0.13500826 0.2162875 -0.16672735 0.0058926856 0.020732205 0.06417873 0.032878138
0.06050644 -0.12938239 0.017269855 0.08216894 0.20471296 -0.16660266 0.16075373 0.15910262
0.27468723 -0.034443982 -0.0075602597 -0.0070404173 -0.17522956 0.18522322 -0.20758314 0.083241835

2.0.fn.3.weight f4 [64, 128, 1]
00000000: 3a4e 753e 6880 de3d cfc4 ed3b d139 b13d
00000010: aef5 6ebe fdd2 c7bd e9d1 e43b dbde e53d
00000020: 82c7 583e fc49 9c3d 1042 2dbd 7403 b43c
00000030: a060 753d aa5c 81be 8bb9 a83c f6ad 62be
00000040: 2146 93bd 98d9 8abc 3635 c73c 827b c9bd
00000050: c0b6 073d 7b90 7f3d a55f 4abe 8af4 50be
00000060: d490 413b c6b0 7a3c 1aee 003d 9baf bdbd
00000070: 7c0a 87bd 1e9a 8bbd 1a54 063e 22d6 a53d
00000080: 27cc d73b 4e7c ed3d 097b ae3d 8fa0 08be
00000090: c1dd 9d3e 84f1 8abe dd3a 7a3d 3b3b 0b3e
000000a0: be71 dabd 6daf d93d 8dd2 ffbd 55cb a03b
000000b0: 9f05 d33d def3 87be c73a d8bc bb9f 0ebc
000000c0: 1d06 bbbc fdf8 953b 7e89 44bc a30d cabc
000000d0: daac 10bc f13c 2e3e eabf 27be ed10 13be
000000e0: 0b76 a0bd 7a6a 5dbe c954 62b9 cfe8 29bd
000000f0: 2466 8abe 0201 343d aae9 843c 9d55 193e
00000100: 04aa 07be cd68 34be 5f94 0abd 96b8 efbd
00000110: 9cf3 c83d d63f a8be a2d0 6f3d ded4 a1bc
00000120: d3cf a2be 5a23 09be b055 453c e931 1a3d
00000130: 8579 203e f725 25bc 1b18 febd 93ce 92bd
00000140: 0b94 d3bd 07a1 d0bd 565c e63e 2cce 94be
00000150: 65d3 2cbe 3283 7cbc cbb0 84bb c27a dabd
00000160: fa76 b73d ea88 edbd 3413 45bd 5d4c 333e
00000170: 6c49 d9bd 6771 8d3d d3b1 55be fb29 d6bc
00000180: d2cd f63b 76f5 f5bc 1470 62bd 00e9 a0bd
00000190: 8cee 923d e8bf 18be 9375 a13c 58a1 1bbe
000001a0: 8c8b 11bd 33b8 193d d9fa 5dbd 128f f0bc
000001b0: 0121 82bd f17f 94bc 724e 33bb 35f2 e33b
000001c0: 1967 29be 4ef9 93bb 3a1b 84bd aa32 513d
000001d0: 3256 fd3d d279 3e3d ef1b a13d ff3b 953d
000001e0: b05a 753d c880 083e 6d12 8ebd 00de d6ba
000001f0: c9a2 da3d fb9b 4c3d 7a2f df3d d3a7 013e
00000200: 90e3 633e 5a20 4e3d 430f 0e3e 07c9 d33b
00000210: faa7 dcbc f6d8 59be f91b 5cbd 4372 503e
00000220: 9f6b a33d c853 b23d 6a66 2b3d d936 bf3d
00000230: fea7 2c3c 9851 d8be ed06 303e 943a 74be
00000240: 7e79 c43d 20be 223e 7e69 8cbd 1a2b 073e
00000250: 78f9 84bd c502 c03d 6e02 d5bd af55 493c
00000260: aba0 0a3e 52ec a63d a7ab 7ebd 4b47 123c
00000270: 3431 9d3d e5ed 443e 566c 84bd 2285 f03d
00000280: df5b 2d3d dba8 cdbc 76a7 d0bd 01fa 3c3d
00000290: 272a cdbd e043 21be 2046 b73d 5e14 503d
000002a0: 1304 023e 7301 bf3d 4dc2 d8bb 3649 5f3d
000002b0: 64c8 ac3c 533e 64bd 5944 5f3b 8daa 37be
000002c0: 796c b6bd b205 16bd 4f8c 84bc d280 943d
000002d0: ee71 573e 21ea d53d 3693 77be f5d2 06be
000002e0: f958 723d bc15 a7bd 0fb9 65bc dbc4 e23c
000002f0: ece2 333d 064e 573e 7d72 9c3d 1e10 7ebc
00000300: f5d3 9bbe 99b0 c1bd f315 cb3e 479e dcbc
00000310: fde2 e63c c512 f4bd 8dae 27be 2b44 d33d
00000320: 9572 f4be 5f67 6d3d 61e1 c43c b209 dc3d
00000330: 650f 103d e277 bb3b 7055 2e3d 08d0 b53c
00000340: 96ab 113e f5e6 38be e93c 333e 823b 403c
00000350: 21b4 bbbd 5aa7 2ebd e479 083e 0e63 f039
00000360: 65f6 c93e 10bd 813c d045 5cbe da95 1cbe
00000370: d7fe 9cbd a7ec 0abc 539d a4be e275 173c
00000380: 96d9 4c3d 5f84 9a3b 43f7 833d 119f f9bc
00000390: c329 cdbd dffa 49be 0915 1b3d 2194 61bd
000003a0: 1c2a 62bd 8837 233d 600e 4dbb 7da5 dc3d
000003b0: 724f a6bb f7e2 0abc 403b b43b 79b0 403d
000003c0: c360 b33e 4470 8f3d 64bd 53bb 6cb9 593e
000003d0: 8df6 1dbd 8860 413d 54bd 403d af28 1f3e
000003e0: 31e6 41be 0e99 a13d 54c5 703b 584a 9cbd
000003f0: b718 adbc f4dc bbbe 95ac 073d c55a 5a3e
0.23955622 0.10864335 0.0072561274 0.08653606 -0.23335907 -0.0975704 0.006983031 0.11224147
0.21169856 0.07631299 -0.04229933 0.021974303 0.059906602 -0.2526601 0.020596286 -0.22136673
-0.071911104 -0.01694946 0.024317365 -0.0983801 0.03313327 0.062393647 -0.19763048 -0.20405784
0.0029535787 0.015300935 0.03147707 -0.0926201 -0.065937966 -0.06816505 0.1311802 0.08097483
0.006585616 0.11595975 0.08519561 -0.13342498 0.30833247 -0.27137387 0.061091293 0.13596813
-0.10666226 0.10629163 -0.12491331 0.0049070516 0.103038065 -0.26553243 -0.026395215 -0.008705075
-0.022830063 0.004576801 -0.011995671 -0.024664706 -0.0088302735 0.17015435 -0.16381803 -0.14361925
-0.07835015 -0.21622649 -0.00021584624 -0.04148179 -0.27031052 0.043946274 0.016224701 0.14974065
-0.1324845 -0.17618103 -0.033832904 -0.11705129 0.0981209 -0.32861203 0.058548577 -0.019754823
-0.31799182 -0.13392392 0.012044355 0.037645254 0.15671356 -0.010079852 -0.124069415 -0.07168307
-0.10330971 -0.101869635 0.44992322 -0.29063547 -0.16877516 -0.015412139 -0.0040493957 -0.106679454
0.0895824 -0.1159838 -0.048114017 0.17509599 -0.10609707 0.069063954 -0.20868616 -0.026143065
0.00753186 -0.030024271 -0.055282667 -0.07856941 0.071744055 -0.14916956 0.019709384 -0.15198267
-0.035533473 0.03752918 -0.054194305 -0.029365096 -0.06353951 -0.018127413 -0.002735999 0.0069563636
-0.16543235 -0.0045158034 -0.064505056 0.051073708 0.12369956 0.046502896 0.07866656 0.07286834
0.05990094 0.13330376 -0.06937108 -0.0016393065 0.1067558 0.049953442 0.10897727 0.12661676
0.22254777 0.05032382 0.1387301 0.0064631733 -0.026935566 -0.2127417 -0.053737614 0.20356087
0.079795115 0.08707386 0.041845717 0.09336633 0.010538099 -0.4224975 0.17190142 -0.23850471
0.09593485 0.1589284 -0.068560585 0.13200036 -0.06492895 0.09375528 -0.10400854 0.012288495
0.13537852 0.08150543 -0.06217542 0.00892813 0.076754004 0.19231375 -0.06465976 0.11744143
0.042323943 -0.02510493 -0.10188191 0.04613686 -0.100178055 -0.15748549 0.08948922 0.050800674
0.12696867 0.09326448 -0.0066149593 0.05451318 0.021091647 -0.0557235 0.0034067838 -0.17936154
-0.08907408 -0.036626525 -0.016180186 0.07251133 0.21039554 0.10445047 -0.2417725 -0.13166411
0.059166882 -0.081584424 -0.014021172 0.027681759 0.04391758 0.21025857 0.076390244 -0.015506772
-0.30435148 -0.094575115 0.39665183 -0.026930941 0.028184408 -0.119176425 -0.1637518 0.103157364
-0.4774367 0.05795991 0.02403325 0.10744037 0.03517093 0.0057210783 0.04256195 0.022193924
0.14225611 -0.18056853 0.17503704 0.011732938 -0.09165216 -0.042640068 0.13327748 0.0004585017
0.39445797 0.015837222 -0.21511006 -0.15291539 -0.07665794 -0.008479274 -0.3215128 0.009244414
0.050012194 0.004715487 0.06443646 -0.030471357 -0.10017731 -0.19724606 0.037861858 -0.055072907
-0.05521594 0.03984788 -0.0031289086 0.10773752 -0.0050753886 -0.008476964 0.005500227 0.047043297
0.3503476 0.07003835 -0.003230893 0.21262139 -0.038565207 0.0472112 0.047055557 0.15542863
-0.18935467 0.07890521 0.003673871 -0.076313674 -0.021129949 -0.3669201 0.03312357 0.21323688

2.0.fn.3.bias f4 [64]
00000000: d5ba 64bd 7d8c 3cbd f434 a2b9 f0f5 623d
00000010: 25da 09bd dd11 4abd 007e 69bb db1e ce3d
00000020: 82e0 783c 2533 a33d 2e6c 723b e64f 8e3c
00000030: 6a85 71bc d8d4 98bd 1494 f7bc 7ceb 8f3c
00000040: 0b9e 533d 29b2 01bd 1d27 f83b c259 32bd
00000050: 6d8e 2b3d 2af2 fb3c 9177 c0bc dcc1 1e3c
00000060: 60a8 053c a4c7 1f3d 3fe2 abbb 1af8 90bd
00000070: 0add 583c 8a4e d7bc df73 deba 10c4 543d
00000080: f4a7 8dbd 8f01 dbbc 216c 53bd e344 233d
00000090: 2bce b7bd a235 17bd 1219 75bd 572d ab3c
000000a0: 3133 96bd 7e69 89bd d3fa 6b3d b530 633d
000000b0: 4175 c83b 97bd 813d 271a 4b3d 40c7 d83b
000000c0: f8da 9cbd edd3 16bd 109c bbbc feff 903d
000000d0: 82e8 cc3c b378 0a3d be39 493d ed9c 923d
000000e0: 7b61 f83c f837 853d bf71 7a3d 70ac 86bd
000000f0: b983 0fbd 4285 f03c a89a 4dbd bc12 a7bd
-0.05584224 -0.046032418 -0.000309385 0.055410326 -0.033655304 -0.049333442 -0.003562808 0.10064479
0.015190246 0.079687394 0.003699075 0.017372083 -0.014741281 -0.07462472 -0.030221976 0.017568342
0.051664393 -0.031664047 0.007573022 -0.04354263 0.041883875 0.030755121 -0.023494514 0.009689774
0.0081578195 0.03900875 -0.0052454765 -0.070785716 0.013236294 -0.026282568 -0.0016971788 0.051944792
-0.069168 -0.026734142 -0.05161679 0.039860617 -0.0897487 -0.036916383 -0.059838362 0.020895643
-0.07333983 -0.06709574 0.05761225 0.055466373 0.0061174934 0.063349895 0.049585488 0.0066155493
-0.076589525 -0.036823202 -0.022901565 0.07080077 0.025013212 0.033806514 0.049127333 0.071588375
0.03031992 0.06504816 0.061143633 -0.065758586 -0.03503773 0.029360417 -0.05019632 -0.0815787

2.0.norm.weight f4 [8]
00000000: 4b66 973f 6179 843f 9da1 913f b939 993f
00000010: 8690 833f 7cfe 9b3f c9c6 993f 1821 8d3f
1.1828092 1.0349542 1.1377445 1.197074 1.027848 1.2187037 1.201379 1.1025724

2.0.norm.bias f4 [8]
00000000: 8517 82bb 991f 2dbd 1993 253d 0585 4aba
00000010: 1448 2b3e 4e10 d13d 03f1 363d 56fd 4cbc
-0.003970089 -0.042266462 0.040423486 -0.000772551 0.16726714 0.10208188 0.04466344 -0.012511572

2.1.fn.0.weight f4 [4, 8]
00000000: 40de 8ebd dc7f 91be 134e f1bb db74 cd3d
00000010: 3c51 12bf 9765 213e e670 4a3d adae 34be
00000020: 1497 debe 2276 01bf e180 7c3e 1de7 f03e
00000030: 48ff 0ebe 3424 09bf b987 aa3c 54ad c73d
00000040: 963b 4fbd 8331 fe3d a3b0 8abe 417e 42bf
00000050: 4a64 873e 1403 b53d 65d0 8a3e 871b 6fbe
00000060: 75d9 323e 822d a4be bd67 393c 9998 d13e
00000070: 772d 6d3c 2e05 b4bd 264c c7be 79ba 193e
-0.069759846 -0.2841786 -0.0073640435 0.10032054 -0.57155204 0.1576141 0.049424075 -0.17644759
-0.43474638 -0.5057088 0.24658538 0.47051325 -0.1396457 -0.53570867 0.02081667 0.097498566
-0.050593935 0.12411787 -0.27087888 -0.759739 0.26443702 0.08838478 0.27112117 -0.23350345
0.17465766 -0.3206597 0.011316237 0.40936735 0.014476172 -0.087900504 -0.38925284 0.1501254

2.1.fn.0.bias f4 [4]
00000000: bd5d 2b3e f1e8 0e3e fc09 f63d 7ade 4ebe
0.16734977 0.13956048 0.12013623 -0.20202056

2.1.fn.3.weight f4 [8, 4]
00000000: 2ea2 7ebe ec1e ccbb e9ec 033f a649 7fbe
00000010: d88f dc3e f147 4e3e ca02 cdbe e99d 963e
00000020: b2d8 323d 7ccc 3cbf e769 d83e e05a 17bc
00000030: 5647 58bf 3f6c 8cbe 5e65 323f d0e6 f6be
00000040: 3fde ed3e 6407 143f 9498 903d 2089 a03f
00000050: 7ad3 9dbc 5417 a93e 9c80 71be dc59 f03a
00000060: 2d8f d43e d706 a8be 14a0 853d e9cc 00be
00000070: 558a 54bd 644e b03e 4f40 64be 4ac1 acbe
-0.24866554 -0.006229272 0.5153337 -0.24930438 0.43078494 0.20144631 -0.4004119 0.2941735
0.043663688 -0.7374952 0.42268297 -0.009237975 -0.8448385 -0.27426335 0.69685924 -0.4822297
0.46458623 0.5782378 0.07060352 1.2541847 -0.019265879 0.3302561 -0.23584217 0.0018337327
0.41515484 -0.32817718 0.06524673 -0.12578167 -0.051889736 0.34434807 -0.22290157 -0.33741218

2.1.fn.3.bias f4 [8]
00000000: c1e2 b7be 81e6 98be fcbf cebe 13e0 9e3e
00000010: 071e 07bf 97f9 ce3d f7ac 843d 54df ae3e
-0.35915187 -0.2986336 -0.40380847 0.3103033 -0.52780193 0.10106199 0.06478303 0.3415476

2.1.norm.weight f4 [8]
00000000: 461f 953f 5894 923f 9100 883f 3f8e be3f
00000010: eaad aa3f bd7e 933f dcb6 903f 8be3 5c3f
1.1650169 1.1451521 1.0625173 1.488716 1.3334324 1.1523052 1.1305804 0.86284703

2.1.norm.bias f4 [8]
00000000: 613d f5bd 0227 74bd 9d19 be3d a56d 353d
00000010: 02c5 66bd 4cc2 73bd 770c 12bd 74b2 28be
-0.11974598 -0.059607513 0.09282229 0.04429402 -0.056340225 -0.059511468 -0.03565642 -0.16474324

3.0.fn.0.weight f4 [128, 64, 1]
00000000: 9e53 62be f1b9 7a3d a0e6 243e b7ef 7bbd
00000010: def9 d3bd e563 1b3d 2524 0d3d 277f c83d
00000020: bb1b 373d a4f3 b2bd ecd3 063e 4ccd efbc
00000030: 18d1 b1bd 08dd e1bd 132f 983e f1f9 373d
00000040: 8516 2b3e 8a36 813e 0a3b e23d 1a7f b6be
00000050: cec0 cdbd 3928 963e f7ea f43d 4d73 f63b
00000060: b6f6 9fbd 24ac 863e 2cb7 aebd d9d1 22be
00000070: 6180 15be e65a 4e3e ff77 3ebe 979a cabd
00000080: b5fa 79be 70a9 e7bd 6c18 b63b 4bea 40be
00000090: 446d 1abe 91ba b23d bd7c 393e e8f4 e2bd
000000a0: 92c5 883d 7c6d 25be e1e6 883e cf0a 953d
000000b0: 7ee5 783c ac39 f5bc 5fc2 2e3e cd2a 683d
000000c0: 56e3 053d 6deb 25bd 94a3 543e a89f 19be
000000d0: 2ca4 66bb 5077 493e 1dce c43d f9ea aabc
000000e0: 8ae8 98bb 2ef0 0b3e 4091 aebc cbb4 73bd
000000f0: ff39 f73d 2888 543c f9b5 19bd c742 dfbd
00000100: 0f6d d8bd 3523 48be 4b12 203e b067 8f3d
00000110: 8eb3 a53c 26cf a93e 33cb 06bd 39f8 aebd
00000120: 8297 063e f6f0 373e 867a 0f3d a8dc 5c3c
00000130: a312 dfbd 7e8f 5dbe 72c8 fbbd 4e55 a73d
00000140: 8dc2 2b3d f702 41be 0016 983e 7a05 cdbd
00000150: a8d1 03be caf5 de3d df86 18be 916b 5ebe
00000160: 987a 99be 3d77 ebbc d13f 35be cb8c 383e
00000170: 2f08 7ebd 8f63 b23c b542 76bd eea9 1c3e
00000180: cc4d 173e 712d 5abd a4df f23c 094c 4a3d
00000190: 95a2 58bd 618f 86bd 9ef5 6cbd 7a2f 6f3e
000001a0: 0fe8 cfbd e47f 4c3e a230 0d3e 967c 103e
000001b0: 07b8 0c3e 311e f53c a2d3 e5bd cfb5 2d3e
000001c0: b999 24bd 851a 033e 0765 993b 0820 f63d
000001d0: bb0e 343d 1592 9ebc fc07 193d 55ba b4bc
000001e0: 1093 ee3d de37 5bbd ed05 853e ca57 68bc
000001f0: cb54 40be c521 bfbe 67db 06be b853 01be
00000200: 7ec8 ad3d 0748 713e 4807 313c ebca f7bd
00000210: 6430 7fbd 1375 983c 87b2 33bd 5704 193e
00000220: 56f1 80bd 4ba0 20be 56a6 c9bd 79af f4bd
00000230: 6a47 46be 3eb3 82bd 063a 19bb 139e 573d
00000240: e1b1 8bbe 03fe 803d dee3 c8bd 3bf1 32bd
00000250: 8c73 123e 8dd0 0a3e ebb3 db3b 744f 143e
00000260: 2fb5 5a3d 5667 0e3e dae0 873d 4da7 c4bd
00000270: c500 f9bd e34b 0c3d 3842 483e a289 dfbc
00000280: 35d0 fc3d 5b1c 6f3e 7d2d af3d 8e23 87be
00000290: dd76 9bbe 03eb 21be df93 4b3e 1a51 8d3e
000002a0: 90c9 153e 416a 8d3d 9af5 133e 5113 f8bd
000002b0: 33d5 89bd 8f6a 753e 308c 6d3c 3b32 0bbe
000002c0: fa88 053d a164 2b3e 7136 1fbd f47c 37be
000002d0: eea9 8cbd 713b a2bd 2a42 5dbe f5c2 b5bd
000002e0: ba0f 02be 7480 133e edb2 9cbc d2bf ddbe
000002f0: 7125 49be 0585 febd 63cb 12bd 29d7 50be
00000300: 6f94 f4bd 1fad 373e 8035 7bbd 4994 11be
00000310: 9e35 243b 1c7a 193e fd45 96bd c694 9fbd
00000320: a372 503e a35c 913d 7e1f 433d 8ea0 3ebe
00000330: f45a 233c 9060 68bd 62be 25bd 902e 23be
00000340: b7bd 5c3e fc77 953d 05d4 2dbe 67d9 7dbe
00000350: bb87 07be a019 c3bc 107c 763d 2238 1bbe
00000360: eb76 59bc 43c8 a73d 5164 54be e5eb 573e
00000370: bb52 4bbe 8880 6dbe bca5 933e 2440 d3bc
00000380: a36a 4e3e 4ca2 2a3c 04ad 9a3d 3d61 db3c
00000390: 92f5 83bc fec2 7ebe ef00 143e b6d4 48be
000003a0: 527e 093e f30f 22bd 8531 603d f572 84bd
000003b0: cac2 d5bd 1566 b53d cb53 24be 6c21 86bd
000003c0: 398a fb3c 8e60 ba3d c21f fbbd ed30 28bd
000003d0: 793c 093d e4ff c93c a495 65bd 32d2 ca3d
000003e0: cd06 7ebe 3a43 0b3e 58df 833d 904b 8ebe
000003f0: f3eb a7bb 61bc 143e b2ed 82bd 970c 73be
-0.2210221 0.061212484 0.16103601 -0.061507907 -0.10350393 0.037937064 0.0344583 0.097898774
0.04470418 -0.08737877 0.1316678 -0.029272698 -0.086824596 -0.110284865 0.29723415 0.044916097
0.1670781 0.25236923 0.11046417 -0.35643846 -0.1004654 0.29327562 0.119588785 0.007521069
-0.07810728 0.26303208 -0.08531031 -0.15900363 -0.14599754 0.20151863 -0.18600462 -0.09892767
-0.24412043 -0.113116145 0.0055571105 -0.18839376 -0.15080744 0.08726991 0.1811399 -0.110818684
0.066783085 -0.16155046 0.26738647 0.07277452 0.015191434 -0.029934727 0.17066334 0.056681443
0.032687508 -0.040507723 0.20765525 -0.1500231 -0.003519307 0.1967442 0.096096255 -0.020863997
-0.0046663927 0.1366584 -0.021309495 -0.05949859 0.12071609 0.012971915 -0.03752706 -0.10901409
-0.10567676 -0.1954468 0.15631978 0.07002199 0.02022722 0.33165854 -0.03290863 -0.085434385
0.13143733 0.17963013 0.035028957 0.013480343 -0.108922265 -0.21636769 -0.12294091 0.081705675
0.041933585 -0.18848787 0.29704285 -0.1001081 -0.12872946 0.10886724 -0.14895199 -0.21720721
-0.29976344 -0.02874338 -0.17700125 0.18022458 -0.062019523 0.021775989 -0.06012221 0.15299198
0.14775771 -0.053265993 0.029647656 0.04938892 -0.052889425 -0.06570316 -0.057851426 0.23357955
-0.101516835 0.19970661 0.13788083 0.14110026 0.13742076 0.029921623 -0.112220064 0.16963886
-0.040185664 0.12803085 0.004681233 0.12017828 0.04395936 -0.019356767 0.03736113 -0.022061506
0.11649144 -0.053520076 0.25981084 -0.014181087 -0.18782346 -0.37330452 -0.13169633 -0.12629592
0.084855065 0.23562633 0.010804959 -0.120992504 -0.06230201 0.018610513 -0.04387143 0.14943062
-0.06296031 -0.15686147 -0.09846179 -0.11947531 -0.1936318 -0.06381844 -0.0023380532 0.052640986
-0.27284148 0.06298449 -0.09809087 -0.043687087 0.1430189 0.13556118 0.0067047975 0.14483434
0.053395446 0.13906607 0.06634684 -0.096022226 -0.1215835 0.03425206 0.1955651 -0.027287308
0.123444 0.2335066 0.08553598 -0.26394314 -0.30364123 -0.15812306 0.19880627 0.27600938
0.14627671 0.06905032 0.14449158 -0.12113059 -0.06730118 0.2396643 0.014498755 -0.1359338
0.032601334 0.16737606 -0.03887028 -0.1791876 -0.06868349 -0.07921494 -0.21607271 -0.08875076
-0.12701312 0.1440447 -0.019128287 -0.4331041 -0.19643189 -0.12427715 -0.035838496 -0.20394577
-0.11942374 0.17937134 -0.06133032 -0.14216723 0.0025056372 0.14987987 -0.07337568 -0.07792048
0.2035623 0.07097747 0.047637455 -0.18615934 0.009970415 -0.056732714 -0.040464766 -0.15935731
0.21556745 0.07298276 -0.1697541 -0.24789964 -0.13235371 -0.02381593 0.06017691 -0.15158132
-0.013272981 0.08192494 -0.20741393 0.2108608 -0.19855778 -0.23193562 0.28837383 -0.02578742
0.20157866 0.010414671 0.07552531 0.026779765 -0.016108308 -0.24879071 0.14453481 -0.19612393
0.13427094 -0.03956599 0.054734726 -0.06467239 -0.10437544 0.08857361 -0.1604759 -0.065493435
0.030705558 0.091004476 -0.12261917 -0.041062284 0.033504937 0.024658151 -0.05605091 0.09903373
-0.24807282 0.13599864 0.06439084 -0.27792025 -0.005124563 0.14524986 -0.06392993 -0.23735271

3.0.fn.0.bias f4 [128]
00000000: c115 233e cad0 903e 7d9c a6be 8b06 cabb
00000010: ecc7 173e f1c9 c63e b84f 623e 783e e33d
00000020: d083 6d3d 1899 e13d 1673 393d d0b9 293d
00000030: bd52 86be 6271 d03e 7f5f 223e 1fac 5c3e
00000040: 9f5f e23d 3e6b 873e e279 e03d 52ec 7f3d
00000050: 27bb a8bc 2cd1 1a3e c0c7 633d db31 9d3e
00000060: e5ab 753e fc47 813e 08d3 de3c 3784 7cbe
00000070: 4e5b 18bd b0c9 763e dc4c ae3e 84a6 d23d
00000080: db38 bfbe 931f 793e 94fd c33d 49ec 14be
00000090: 0230 803e 7a55 b23d 1a97 143e 5dbe c53b
000000a0: 924c b5be ba15 7ebc 63bb cc3e 0aaa 8f3d
000000b0: a8d8 84be 7a50 6c3e d0d2 8ebe 6207 083f
000000c0: 9983 6c3d ee1c 223d 48b4 1ebf 5112 b93e
000000d0: c2e2 75bd 0016 1b3c 6703 5cbe 8e27 053e
000000e0: c850 473e 2ee7 2a3e 40c2 3ebd 034a c63e
000000f0: cdec 01bf 0abb 5e3d bbf0 e6bd ca5e 173e
00000100: 95ea 74be 8703 f6bd aa32 9f3b bdd2 62be
00000110: 9898 34bb d893 48be 1548 d63d 1ce6 82be
00000120: b7b3 2e3d 23d1 053f ab9a 28be e02d 24be
00000130: 944a 6e3e 2c33 d13d 102c 203e aebf 933e
00000140: ad58 a13c 7d49 d43e 7162 033f cfda 253e
00000150: ec4a 343e 352a 12bf 7044 183f 7a24 a73b
00000160: 9093 d73c b7db 413f 5a42 063e c4e4 3b3b
00000170: a30c 0fbe f7f9 2a3e 99df b53e 3010 07bc
00000180: 2953 3c3d 0903 72bb bef6 d93e a15d 6d3e
00000190: 5250 14bf f4d7 d8be c660 b43e 4eb4 12be
000001a0: 035e 24be 4f36 42be bb2d e93d 3266 5fbd
000001b0: 1233 493e 49a2 0f3f 9204 a83b a08f f7bd
000001c0: 58d5 11bf 6764 26be 25e1 ba3e c47a 0a3e
000001d0: a7e7 97bd dae7 f23e 5524 523e f8ff e5be
000001e0: e965 0e3e 6d98 ae3d cffe 1c3f 8c78 9ebe
000001f0: 8cf3 db3e 09a5 9d3e 82cc 8f3e 981b 413e
0.15926267 0.28284293 -0.32541266 -0.0061653308 0.14822358 0.38825944 0.22100723 0.11095899
0.057987034 0.110155284 0.04527577 0.04143697 -0.26235 0.40711504 0.15856741 0.21550034
0.110533945 0.26449007 0.10960747 0.062481232 -0.020597054 0.15118855 0.05561042 0.307021
0.23991354 0.25250232 0.027200237 -0.24659811 -0.03719645 0.24100375 0.34043014 0.102856666
-0.37348065 0.24328451 0.095698506 -0.1454326 0.25036627 0.087077096 0.14510766 0.006034656
-0.3540998 -0.01550811 0.39986715 0.07014854 -0.25946546 0.23077574 -0.27895212 0.53136265
0.05774269 0.03957837 -0.6199384 0.36146787 -0.060030706 0.009465694 -0.21485673 0.1300337
0.1946441 0.1668975 -0.04657197 0.3872834 -0.50751954 0.054377593 -0.112763844 0.14782253
-0.23917611 -0.120123915 0.0048583345 -0.22150703 -0.0027556773 -0.19587648 0.10462967 -0.25566185
0.04265186 0.5227224 -0.16465251 -0.16033125 0.23270637 0.102148384 0.15641809 0.28857177
0.019695604 0.41462317 0.51322085 0.1619675 0.17606705 -0.5709565 0.5947943 0.005100784
0.02631548 0.75725883 0.13111249 0.002867029 -0.13969664 0.16696917 0.35522154 -0.0082436055
0.045977745 -0.0036928079 0.42571062 0.23180248 -0.5793506 -0.4235226 0.35230082 -0.14326593
-0.16051488 -0.1896603 0.113856755 -0.05454082 0.19648388 0.56107 0.005127498 -0.12087941
-0.5696616 -0.16249238 0.36499897 0.13523394 -0.07417231 0.47442514 0.20521672 -0.4492185
0.13906063 0.08525167 0.6132631 -0.30951345 0.4295925 0.30789974 0.28085715 0.18858182

3.0.fn.3.weight f4 [64, 128, 1]
00000000: 5055 b33e dd9e af3d e468 1b3e 6aa1 283d
00000010: 9cdd ae3e 257b 99bd 5612 8b3e 8e0b 24be
00000020: 21e4 a0be 0a54 57bd 0b9b 49be d29c 2e3d
00000030: 87d4 37be d2e2 433e 752b 443e efc0 9d3e
00000040: 2243 913e a3af 213e 190d 423e 2d40 7cbe
00000050: 1983 b03d 6758 3f3e c3f3 133e f9b2 5e3e
00000060: 9d4f 4f3e e8b4 f93d e85d 703e 85bf 6c3e
00000070: 2870 213e 6242 fc3d 2ad2 4f3e 641d 62be
00000080: 5c7d 403e 93d2 643e b45a 423e b127 11be
00000090: f5fa 97be 6eed 063e a9ae 003e 5199 5e3c
000000a0: bf33 613e 323f 063e 17ec ff3e 0ebb 1d3e
000000b0: e6ab 8d3e 077d a3be e7df 733e 887b 283e
000000c0: c7a1 64be d90a cd3e 6dfc a53e 67cf 36bd
000000d0: 9ed8 46ba 42d5 dc3d cc56 2d3e 1eae 623e
000000e0: e6b3 bbbe f723 cf3e 03b2 1f3e 6309 153e
000000f0: f2d7 503e 572b c1be d442 5a3e 65a0 a33d
00000100: 2e97 823e 75e8 c6bc 87ef ca3d bc40 b33e
00000110: 5df9 c03e ab78 6cbd 9360 5d3e 645b 833e
00000120: 33a9 b53e 596c fa3d ab41 8a3e 9a77 e83e
00000130: 871a 4ebe 4f54 adbd 6dbd 97be fb05 9cbd
00000140: d9ca ae3e c179 323e eee5 8bbe 5f74 f43d
00000150: 4e3b 7c3e 12cf 7f3e 0188 293c ece8 01bd
00000160: de71 1d3e 3847 c7be efbf 193e 271e 3bbe
00000170: e60e f43c 350c 5b3e a547 20be 84dc 9fbd
00000180: bd45 0cbe 0be2 9e3e 9867 a3be 3274 663e
00000190: b2f3 ba3e 6b8b 053c 8062 653c 6b12 843e
000001a0: 251f 8abe aced 4dbe 38fe 58be 1a68 933e
000001b0: ac18 3fbe 9e5c a93e 462f 54be b724 523e
000001c0: b02b f63d 581a b03e 3dc0 a63e 857b 11be
000001d0: ab8a b5bd f082 6ebd 879d 47be 3f63 b93e
000001e0: e489 74bd e4e5 00be 16e5 a9be 92a7 573e
000001f0: 4a71 a03e 7133 583e 0294 2f3e 0195 9a3e
00000200: 40fb b83e a2b9 363e 1fb2 903e cdef 203e
00000210: adc3 353e 4a88 82be 54d9 a13d a581 9dbe
00000220: efe2 86be b54a a9bd ca3d b5bd 972b 60bc
00000230: 9356 9039 5d8c 423e 3a95 fd3d 81a8 3b3e
00000240: 6034 913d b25b 033e af88 f03c db49 87be
00000250: dae2 933a 01cb 203e 0240 56bd 354b f2bc
00000260: a049 d23d 2eb6 003e ea87 8c3e 8f8c cc3d
00000270: ecde 283e ab31 9b3d d3da 4b3e 1c17 d1bd
00000280: e7ed 773e f1de cd3d a343 d33d 14b9 0fbe
00000290: 41df 6bbe 05de ac3d 3b1f 4a3e 9b1e 36bd
000002a0: cfbd d73d 3c17 973e 26cd 953e 5b2c 5f3e
000002b0: 9bf5 ad3e 20ab 5ebe 02e5 d73d b85f 783e
000002c0: b58a 75be 51c1 793e 3e2c 983e d59f 02be
000002d0: 0072 3abd 7afc 153e faa8 12bc 76f3 2b3e
000002e0: 173b 8cbe b505 5a3e b964 2e3e e10d 7a3e
000002f0: ef0b 433e 884d 84be ef2d 1b3e 920f c13d
00000300: d413 8c3d d8d4 8d3d 45b1 c83d 795b 813e
00000310: ba25 f03e b0f0 0dbd 6e27 723e a180 983e
00000320: 693b 433e d739 533e 2c34 ab3e 0dd5 e03e
00000330: f773 2bbd dc25 2a3d d1a3 4abe 8e68 41be
00000340: 853e 943e bd24 6f3e 41e7 89be 88e2 863d
00000350: f2af 4a3e b265 883d 941a 1ebd 5829 323d
00000360: ce31 e93d 858f acbe b784 ab3e 65d3 5dbe
00000370: 645b 9a3d 2bdc 493e a062 00be be19 7dbd
00000380: 2251 0fbe c7f1 063e 7d89 8ebe 641a a93e
00000390: 19be 9b3e ba47 603e 8453 a63b a679 883e
000003a0: a977 2fbe a682 fbbd 28e6 82be 2939 ab3e
000003b0: 6cff 97be 8b65 e13e 2183 68be 46a4 ae3e
000003c0: 747d 7c3d 0352 9d3e 54f9 a63e 47e0 13be
000003d0: 6bd4 69be b76c 4cbe 0dcb 14be d5aa 7f3e
000003e0: f7f4 fabd 4f9f 0ebe 07fa f9be 9185 493c
000003f0: 2089 863e 721d 853e 49cc bd3d f455 c33e
0.35026026 0.08575223 0.15176731 0.04116956 0.3415345 -0.07494191 0.27162427 -0.16020033
-0.3142405 -0.05257038 -0.1968805 0.042630024 -0.17952166 0.19129494 0.19157203 0.3081126
0.2837153 0.15789656 0.18950309 -0.24633856 0.08618755 0.18686067 0.14448456 0.2174796
0.20245214 0.12192708 0.23473322 0.23119934 0.1576544 0.12317349 0.20295015 -0.22081524
0.18797821 0.22345953 0.18979913 -0.14175297 -0.29683653 0.1317651 0.12566628 0.013586358
0.21992396 0.13110045 0.4998481 0.15403387 0.2767021 -0.31931326 0.2381588 0.16453373
-0.22327338 0.4004734 0.32419148 -0.044631388 -0.0007585379 0.10782863 0.16927642 0.22136733
-0.3666069 0.40457126 0.1559525 0.14554362 0.20394877 -0.37728378 0.21314555 0.07989577
0.25505966 -0.024280766 0.099089675 0.35010326 0.3769025 -0.057732265 0.21618871 0.25655663
0.3548065 0.12227697 0.27003226 0.4540375 -0.20127307 -0.08463346 -0.29636708 -0.07618328
0.34139135 0.17429258 -0.2732386 0.119362585 0.24631998 0.24981335 0.010347367 -0.031716272
0.15375468 -0.38921523 0.15014623 -0.18273221 0.02979226 0.21391375 -0.1565233 -0.07805732
-0.13698478 0.31031832 -0.31914973 0.22505262 0.3651405 0.008150916 0.014000535 0.25795302
-0.26976886 -0.20110196 -0.21190727 0.2879036 -0.18661755 0.33078474 -0.20721158 0.20521818
0.120200515 0.343951 0.3256854 -0.14207275 -0.088643394 -0.05823034 -0.19493686 0.3620853
-0.059701815 -0.12587696 -0.3318259 0.21060017 0.31336433 0.21113373 0.17146304 0.30191806
0.3612919 0.17844251 0.28260896 0.15716477 0.17750426 -0.25494605 0.0790278 -0.30762973
-0.26345012 -0.08266202 -0.08849676 -0.013682268 0.00027530323 0.18998857 0.12381978 0.18325998
0.07090068 0.12827948 0.02936205 -0.26423535 0.0011282817 0.1570244 -0.052307136 -0.029576877
0.10267949 0.12569496 0.27447444 0.09987747 0.16491288 0.07577833 0.19907694 -0.10209486
0.24211846 0.10052288 0.10315635 -0.14035445 -0.23034383 0.08440784 0.19738476 -0.04446278
0.1053425 0.29509914 0.29258078 0.21794264 0.33976445 -0.21744967 0.10541727 0.24255264
-0.23978694 0.2439015 0.29721254 -0.12756284 -0.045518875 0.14647093 -0.00895142 0.16792092
-0.27388832 0.2129124 0.1703061 0.24419357 0.19047521 -0.25840402 0.15154241 0.09426798
0.068397194 0.06925362 0.097994365 0.252651 0.46903783 -0.034653366 0.23647854 0.29785636
0.19065632 0.20627533 0.3343824 0.43912545 -0.04185864 0.04154001 -0.19789053 -0.1888754
0.2895395 0.23353858 -0.26934245 0.06586176 0.1979368 0.06660022 -0.038599566 0.04349646
0.113864526 -0.33703247 0.3349969 -0.21662672 0.07536963 0.19712894 -0.12537622 -0.061792128
-0.13995793 0.13178168 -0.2783927 0.33027947 0.3041847 0.21902362 0.005075874 0.2665531
-0.1713549 -0.122807786 -0.2556622 0.33442047 -0.2968706 0.44022784 -0.22706272 0.34109706
0.06164308 0.30726632 0.32612097 -0.14441024 -0.22834937 -0.19963346 -0.14530583 0.24967511
-0.122537546 -0.13927959 -0.48823568 0.012299911 0.26276493 0.25999027 0.0926748 0.38151515

3.0.fn.3.bias f4 [64]
00000000: 89fb ae3d bac2 9bbd c907 a63d ac21 89bc
00000010: 191c 23bd 8254 b0bc 274b a93b 0777 233d
00000020: 091d 1abc 44af 50bc a2e5 413d 3e06 e53c
00000030: 88d9 0b3c b1de a03c e01a 96bd d984 a53d
00000040: 63e7 5dbd 426d 883d d69a 8abd 2e49 eb3c
00000050: 79fd 8f3d c0eb 583d 42a5 003d f2a9 033d
00000060: 2054 a23d df4c 1fbd c2b4 873d cf09 143d
00000070: 3757 2d3d 2769 83bb 7bff 1a3d b135 94bd
00000080: a90a f13c 449e a43d 6b08 493d 0c79 37bd
00000090: 0d30 6bbd 124b 343c 6e84 a5bc 3221 763d
000000a0: f96f 4fbd 59f5 9ebd c982 8fbc d782 a9bd
000000b0: c807 93bb 790c 573d 47d5 a23d 5281 133d
000000c0: af72 afbd d7f0 2fbc 20be 0fbd f8ad 08bd
000000d0: 39f7 a13d b7fd 853d e538 c7bc b593 133c
000000e0: 618b 733c 7a3e 3abd a983 e4bc 88db 7ebd
000000f0: ea18 b0bd d2b8 abbd efc5 71bd 7032 88bb
0.0854407 -0.076055005 0.08106954 -0.016739689 -0.039821718 -0.021524671 0.0051664296 0.039908435
-0.009406337 -0.012737099 0.047338136 0.027957078 0.00853575 0.019637438 -0.07329345 0.08081979
-0.054175746 0.06661464 -0.06767814 0.028721418 0.07030768 0.052959204 0.031407602 0.032144494
0.07926202 -0.03889167 0.06626274 0.036142167 0.042319503 -0.004010338 0.0378413 -0.07236803
0.029424028 0.08037999 0.049080294 -0.044793174 -0.05741887 0.011004226 -0.020204749 0.06009025
-0.050643895 -0.0776164 -0.017518418 -0.08276909 -0.0044870116 0.05250213 0.07950836 0.036012
-0.08566796 -0.010738573 -0.035093427 -0.033369035 0.07908482 0.06542533 -0.024319122 0.009007384
0.0148647735 -0.04546974 -0.027894812 -0.06222108 -0.08598502 -0.08384861 -0.059026655 -0.0041564032

3.0.norm.weight f4 [8]
00000000: 9281 ac3f c2ec f63f b8f6 9c3f 3722 cc3f
00000010: 290f b53f c554 b83f 9c21 c83f 13ef 4f3f
1.3477042 1.9291003 1.2262793 1.5947942 1.4145252 1.440087 1.5635257 0.81224173

3.0.norm.bias f4 [8]
00000000: 402c 98be eabd 3f3e 016c 90bb d0e4 203d
00000010: 97f2 b33c 5417 593e 739c 62be b661 d13c
-0.2972126 0.1872479 -0.0044074063 0.039280713 0.021966262 0.21200305 -0.22129993 0.025559288

3.1.fn.0.weight f4 [4, 8]
00000000: 4278 08bf 255b c23c 0b54 babe 6710 063f
00000010: fee1 3ebf f2d7 d03e 1d29 b23e b7ba eb3e
00000020: 6f30 a83d 09e7 2dbf 2da9 b43d 07b6 6dbe
00000030: 2eee 8ebe 6de5 96be 7c4f d23d 782d 19be
00000040: e3b8 053f 5906 333e ba76 d7be ebe9 f83d
00000050: a67c 263e 3b24 8d3e 8df7 2cbf 34e2 2cbf
00000060: 2754 0bbf a6d8 6dbc cc92 ecbe 7017 6b3e
00000070: 09eb a03e d07a 91be 8cdd 803e 7ad4 943e
-0.533085 0.023725102 -0.36392245 0.5236878 -0.74563587 0.40789753 0.34796992 0.4604089
0.08212363 -0.67930657 0.0882133 -0.23213969 -0.27916092 -0.29471913 0.10269067 -0.14958751
0.5223524 0.1748289 -0.4208277 0.12153991 0.16258487 0.27566704 -0.6756523 -0.6753266
-0.5442528 -0.014516985 -0.46205747 0.2295816 0.31429318 -0.2841401 0.25169027 0.29068357

3.1.fn.0.bias f4 [4]
00000000: 4d80 b73c 6c05 c3bd 58f3 5dbe 89c5 bf3d
0.022400046 -0.095225185 -0.2167486 0.09363849

3.1.fn.3.weight f4 [8, 4]
00000000: 6622 3f3e 4572 413e 6ddd 34bf 176c 913e
00000010: 7ef0 473f 6dbb 1bbf 714c 96be 0622 d03e
00000020: 4fa7 af3e e844 b5be b710 d33d b4e2 cf3e
00000030: 283e d3bd 4b02 cabd f248 12bf 3ffe 9d3e
00000040: 248a 003f c54c fabd d98d d83e 4d5e 12bf
00000050: f9b5 413c 3f44 cb3d 449e dc3e 3526 f4be
00000060: d2ec eebe 89cb 0f3f a58b 28be efff 1abf
00000070: 7169 193f a3db dfbe f7ec b1be 4178 f1bc
0.18665466 0.18891247 -0.7065037 0.28402779 0.78101337 -0.60832864 -0.29355195 0.40650958
0.34307334 -0.35404134 0.103059225 0.40602648 -0.1031459 -0.098637186 -0.57142556 0.30858037
0.50210786 -0.12221674 0.4229572 -0.5717514 0.011823171 0.09925126 0.43089497 -0.476854
-0.46665055 0.56169945 -0.1645952 -0.60546774 0.59926516 -0.43722257 -0.34751102 -0.029476287

3.1.fn.3.bias f4 [8]
00000000: a01d 06be 7b2f d9bd 3427 c73e 207a 663e
00000010: f68a 3abe 065b 89be ec34 a53d 5d5e acbe
-0.13097239 -0.10604759 0.38897097 0.22507524 -0.18217072 -0.26827258 0.08066735 -0.33665743

3.1.norm.weight f4 [8]
00000000: 49ae b63f 499f a23f b825 9a3f 4682 8c3f
00000010: 08e6 ef3f becc ab3f f330 b63f fb28 b73f
1.4271938 1.270486 1.2042761 1.0977256 1.8742075 1.3421857 1.4233688 1.4309381

3.1.norm.bias f4 [8]
00000000: a79e 23be f07f bb3d 8fca 55be f8b3 143e
00000010: ac68 3abe 317f a33c 7cdc a7bd 93e4 6b3d
-0.1597849 0.091552615 -0.20878051 0.14521778 -0.18203992 0.01995811 -0.08196351 0.057591032

4.weight f4 [8]
00000000: ed76 3240 76ea 4d40 78b2 4d40 5bf6 5440
00000010: aad1 4b40 97c8 4040 c3e6 4e40 c25b 5540
2.7885087 3.2174354 3.2140179 3.3275363 3.1846719 3.012243 3.2328346 3.3337255

4.bias f4 [8]
00000000: 5c60 333e 24dc ad3d ee33 00be e368 d23e
00000010: bf30 92be 06d6 9d3d 0aa8 d8bd 0c3f 693d
0.17517227 0.08489254 -0.1251981 0.41095647 -0.28552815 0.07706837 -0.10578926 0.05694489

6.weight f4 [15, 8]
00000000: 36d8 493b 4f66 353f cdd6 25bf 4807 c23e
00000010: cf39 cc3e 0518 9cbf 6dd0 4dbf ca8c aa3f
00000020: 3321 c2be 6ad6 ccbe 8c01 30be cc27 a23f
00000030: bc94 8c3f 0a4c 4f3f 99c6 81bf ad77 633e
00000040: 6a15 b73e 72fa 573f 1b28 0ebd 7e81 f0bf
00000050: 6667 993f 6d3d 5e3f e041 16bf fe64 0dbf
00000060: df41 06bf 8138 773f 6497 acbf a63b 0a3f
00000070: 474a 143f 11c4 2a3e ba9c 5f3f 78d9 6cbf
00000080: f358 30be e6e2 b7be 75cf ecbe 400e 983f
00000090: 462c 43bf a718 6cbf d1f7 ea3d 04a0 d53e
000000a0: 3a35 133f 7716 3ebf 4a5a edbe 50be b53e
000000b0: 6277 db3d 9449 5ebf 1f93 9c3f 1678 72bf
000000c0: aa98 8bbf b9f1 993f b8dd a83f 833f 1fbd
000000d0: 9944 40bf a751 713f 0ba5 6fbf f382 26bf
000000e0: b57d 223e 9c78 61bf b96b 513f d714 82bf
000000f0: 0311 97bf 5623 ac3e 4466 adbf 011c 773f
00000100: d540 843f cf98 33bf 9b3d b8bf d7e5 d8be
00000110: dc61 10bf f8a1 7e3f a498 9f3e 5eaf a43d
00000120: 2879 743f 4f87 89be b776 f7be a523 d3bd
00000130: 38c6 a23f 09ea 59bf 1b23 38bf 4b80 2fbf
00000140: 110d 56bf c294 913f 3cef 2d3f bb20 f5bc
00000150: f160 1a3f b170 c4be a111 76bd 9916 b3bf
00000160: 910e 6cbf 744e 383f cd9d 443e dbfa 87bf
00000170: 8c93 7fbf adb0 983e bbf5 8f3e a219 623f
00000180: 6103 483f c6e8 77bd 9d62 533e 7058 58be
00000190: eaec a9bf a251 6abf f1fe 0b3f 764a 9cbe
000001a0: e106 c6be aff7 46bf 0651 c2be 1315 8bbf
000001b0: 155e 0bbe 0461 8b3f 34da 873f a21f 283f
000001c0: 67bd 3cbc 5498 aabf 8f93 8e3f f95c 063f
000001d0: 3217 c7bd 1631 2a3d 75ac bc3e 5c3c 3dbe
0.0030799038 0.70859236 -0.64780885 0.3789618 0.39887854 -1.219483 -0.8039616 1.3324215
-0.37915954 -0.40007335 -0.1718809 1.2668395 1.098289 0.809754 -1.0138732 0.22213621
0.35758525 0.84366524 -0.034706216 -1.8789518 1.198468 0.8681248 -0.5869427 -0.55232227
-0.5244426 0.96570593 -1.3483701 0.53997266 0.5792584 0.16676356 0.8734852 -0.9251933
-0.17221431 -0.35915297 -0.46252027 1.1879349 -0.7623943 -0.92225116 0.114730485 0.41723645
0.5750309 -0.7425303 -0.46357948 0.3549676 0.1071613 -0.8683102 1.2232398 -0.94714487
-1.0905964 1.2026893 1.3192663 -0.03887893 -0.7510467 0.94265217 -0.9361121 -0.6504356
0.15868266 -0.8807466 0.81804997 -1.016261 -1.1802067 0.3362071 -1.3546834 0.96527106
1.0332285 -0.7015504 -1.43938 -0.42362854 -0.5639932 0.99465895 0.31171143 0.08041261
0.9549737 -0.26861045 -0.4833276 -0.10309533 1.2716742 -0.85122734 -0.71928567 -0.68555135
-0.8361369 1.1373522 0.6794317 -0.029922834 0.6030417 -0.38367227 -0.060075406 -1.3991271
-0.92209727 0.7199471 0.19200821 -1.062343 -0.99834514 0.29822293 0.28117165 0.8832036
0.78130156 -0.060524724 0.20643087 -0.21127486 -1.3275425 -0.9153081 0.54685885 -0.3052556
-0.38677123 -0.77721685 -0.3795244 -1.0865806 -0.13610108 1.0888982 1.0613465 0.6567327
-0.011519766 -1.3327737 1.1138781 0.52485615 -0.09721221 0.04155072 0.36850324 -0.18480057

6.bias f4 [15]
00000000: 401d 003f 15c3 89bc aa6f b8be 5284 d83e
00000010: 21d5 acbe 27dc cdbe 6b67 b93e 941e 83be
00000020: e51e 2b3e 08a1 a93d 61d6 d0be d6ac bf3e
00000030: 2338 953e 7441 afbe f793 333f
0.5004463 -0.016816655 -0.36022693 0.42288452 -0.33756354 -0.40207025 0.36211714 -0.25609267
0.16711004 0.082826674 -0.40788558 0.3743655 0.2914439 -0.34229624 0.7014765
